results/federated_model.pth (torch, 19573 bytes, 5 tensors)

layer1.weight f4 [64, 30]
00000000: 3201 423e 9a0b 3c3e d538 e83b d3ca 5e3e
00000010: 1ad7 c5bc 80f1 823d 7071 32bd 7b53 1e3e
00000020: 8545 213e 2a2d 30be c33c 553e 88a4 f6bb
00000030: 8eb6 393e 1280 983d e1bf b33d adf2 f5bc
00000040: 9e2e 1f3e d2ff 783d 9200 f1bd 74bc 0d3c
00000050: c55e 0cbd a607 a33c ab2f c7bc c80a 2f3e
00000060: 688f e7bd 1d5a 4fbd 2bb9 9cbb 1b78 7ebd
00000070: ba1c 6e3d 5361 41be 0ed5 403e e168 03be
00000080: ba30 283e 1ed0 5c3d 52b1 79bd f271 053e
00000090: 49e9 463d c11a 2b3e 3ef5 f03c 4f22 a5bd
000000a0: d0dd 8b3d 25eb 52bd 9245 c63d da91 413e
000000b0: ba41 d13d 5ea9 a0bd 1f32 c53d da1f 263d
000000c0: ebf8 ba3d 5aad 08be a615 21be 41e9 34bd
000000d0: 3564 eebd fc8f 313e baf7 643d e696 c33d
000000e0: ed3a a33d e2a9 9a3c a29c 273e 93e3 0cbe
000000f0: db2e 1cbd 3d9f 32be f38c d53b cab7 e4bd
00000100: 28f8 a23c 6ed7 a4bd 0a4e d43d e24c 20be
00000110: 8766 14be f8ae f0bd d3a1 ef3d 9659 d83c
00000120: 4d39 053e 51c6 4abe 854c 53be a880 37be
00000130: ae90 28be cacf f63c 50f0 6a3d 36c9 f03d
00000140: 05a9 13be 7d6b 32be 595f 403d ae52 fdbd
00000150: bbb4 913d 069f b7bd 3a78 5f3d ba61 44be
00000160: bca6 0cbe 532d 9f3c b2a9 38bc 6e42 c2bd
00000170: 4a82 713d e70a 983d 33a8 27be 96dc 0bbe
00000180: aa68 fb3d 5ab3 e1bd ee2f b1bd 41af 2bbe
00000190: 2212 1cbe 4a55 6a3d 8744 90bd f2ca 3abe
000001a0: b66b f93b 5671 1cbe 0a73 48be dea6 15be
000001b0: 947f 0abe ce09 10be e0c8 073e 882d 7bbc
000001c0: 95b8 d03b 5d77 61be 1aa2 27be b6c4 c9bd
000001d0: b9d5 9dbc fd8e 57be 2349 01be 3d7c 0abe
000001e0: 926b 2ebd 2653 efbd ead0 63bd 0f3a 2bbe
000001f0: 2091 25be 0d3c 12be b065 d3bd 85fb 3ebe
00000200: 397b 023e dbf8 20bd dbf1 e43d e87a 2a3d
00000210: 011e 49be 0e89 a63d 43f6 7fbd 1eee cabd
00000220: 0777 3ebe e38b 5dbe ba3d 843d 7bd3 83bd
00000230: 6d30 d83c 66d6 4bbe ad81 ba3d 6dd6 37be
00000240: 70b3 95bd 00f0 5eba 8844 503d 06c9 d23d
00000250: 5bff f43d a513 3bbe dda7 80bb 1882 03be
00000260: 4e1b 8fbd 6b02 3fbe 8a70 103e da9f 35be
00000270: 85b9 4a3d deb5 6b3c 4cab 023d f042 d9bd
00000280: 1af4 ed3d 6ae9 de3c 6828 c8bc b2cc 57be
00000290: b84f 9e3d d35a 91bd d674 08be 1d8b db3d
000002a0: 7a44 b53c f1a0 0bbe 48b6 11be c333 70bd
000002b0: 563d 553d 84ba c5bd e639 05be 8256 d8bd
000002c0: 16fe 3dbe b899 7a3c dd4d d53d 45a6 4abe
000002d0: b374 b93d 7e75 053e 8725 a63d b375 89bc
000002e0: 9649 073e a8cf ff3d f3fb e73d c8c6 6f3c
000002f0: 3896 b9bc b635 92bc cb11 2c3c 389e 8fbd
00000300: d300 203e d37c 503e 7b7f 15bd 7bd4 5dbd
00000310: 02f8 483c 01a9 263c 57e5 863c c125 843c
00000320: 9330 f1bd a5c0 06bd 7688 4e3e 7b32 f43d
00000330: 1a3d ff3c 4321 9abd c496 89bd e61f f1bd
00000340: 3834 d7bc d260 4e3d 907a b63d 4724 853d
00000350: 90b9 41be f6af 0cbe 68e7 41bd 7279 173e
00000360: bbca e9bb 308c 9ebd 6a30 853d cd6d a6bd
00000370: 67c2 0abe dbc8 1b3e 13a5 d1bd b62e 5fbd
00000380: 8673 34be 5da7 d13d 0578 e13d 2d0e 3b3d
00000390: 6d3e eebd 9ef5 4abe 11de 32be 2d74 023e
000003a0: c5b5 743d af18 023e 9a4c 963d 8dbc 7b3c
000003b0: 6b52 17bd ce53 30be 3d96 26be 00f5 48be
000003c0: b30a cb3c a0f2 0ebe 4e8c b1bd 28c0 1ebe
000003d0: daa7 80bd 1a74 31be 222b 2bbe b569 2e3c
000003e0: dee8 a7bd 5eda f23d a01a d2bd 16dd 1fbe
000003f0: 6a2b 9abd d2c5 0dbe 3607 17bd 5266 4bbe
0.18945768 0.183638 0.007086853 0.21757059 -0.02415042 0.06393719 -0.043565214 0.15461533
0.15749176 -0.17204729 0.2082396 -0.007526938 0.18136045 0.074463025 0.08776832 -0.030022943
0.15545127 0.060790844 -0.11767687 0.008650888 -0.034270067 0.019901108 -0.024314722 0.17093956
-0.113066494 -0.050623048 -0.004782816 -0.06212626 0.058132865 -0.18884782 0.18831274 -0.12832977
0.16424838 0.053909414 -0.06096012 0.13031748 0.04856232 0.16709425 0.029413816 -0.080631845
0.06829417 -0.051493783 0.09681238 0.18903294 0.102176145 -0.07844804 0.096287005 0.04055772
0.091295086 -0.13347378 -0.15730914 -0.04416776 -0.11640207 0.17340082 0.055900313 0.09550266
0.079702236 0.018879835 0.16368344 -0.13758688 -0.038130622 -0.17443557 0.0065170466 -0.111678675
0.01989372 -0.080489025 0.10366447 -0.15654328 -0.14492236 -0.11752123 0.117007874 0.026409905
0.1301014 -0.19802214 -0.20634659 -0.17920172 -0.16461441 0.030128378 0.057358086 0.11757128
-0.14419945 -0.17423816 0.04696593 -0.123692855 0.0711455 -0.08965878 0.054558016 -0.19177905
-0.13735479 0.019430792 -0.011270927 -0.09485327 0.058962144 0.074239545 -0.16372757 -0.13658366
0.122758225 -0.11020537 -0.0865172 -0.16766073 -0.15241292 0.057210244 -0.070443206 -0.1824148
0.007611717 -0.15277609 -0.19575134 -0.14614436 -0.1352523 -0.1406624 0.13260221 -0.01533068
0.00636966 -0.2201819 -0.1637043 -0.09851973 -0.01926695 -0.2105064 -0.12625556 -0.13523956
-0.042583056 -0.11685781 -0.055619158 -0.16721366 -0.16168642 -0.1428072 -0.1032213 -0.18650635
0.12742318 -0.039299827 0.11178943 0.04162112 -0.19640352 0.0813161 -0.062490713 -0.099086985
-0.18600093 -0.21635394 0.06457086 -0.06436821 0.026390279 -0.19906005 0.09106765 -0.1795289
-0.073096156 -0.0008504391 0.050846606 0.102922484 0.11962768 -0.18269213 -0.003926261 -0.12842596
-0.0698763 -0.18653266 0.1410543 -0.1773676 0.04949333 0.014386622 0.031901643 -0.106084704
0.11618824 0.02721091 -0.02443333 -0.21074179 0.07730049 -0.070974015 -0.1332582 0.10719893
0.022127379 -0.13635613 -0.14229691 -0.058643114 0.052060448 -0.09654716 -0.13010368 -0.10563375
-0.18553957 0.0152954385 0.10415242 -0.1978999 0.09055462 0.13033101 0.081126265 -0.016779756
0.13211665 0.12490779 0.113273524 0.0146347955 -0.022654638 -0.017847877 0.010502289 -0.070126
0.15625314 0.20360117 -0.036498528 -0.054157715 0.012266161 0.01017213 0.01646678 0.016131284
-0.11776843 -0.032898564 0.20169243 0.11923691 0.031157065 -0.075258754 -0.067182094 -0.11773662
-0.026270017 0.050385304 0.08910096 0.0650106 -0.18918443 -0.13738999 -0.047339827 0.14792421
-0.007134763 -0.077415824 0.06503375 -0.081264116 -0.13550721 0.15213339 -0.102365635 -0.054487906
-0.17622194 0.10237 0.1100922 0.045667816 -0.116330005 -0.19820258 -0.17467524 0.1273963
0.05974366 0.12704729 0.07338829 0.015364778 -0.036943834 -0.17219469 -0.16268249 -0.1962471
0.024785375 -0.13959742 -0.08669339 -0.1550299 -0.06282015 -0.17329445 -0.16715673 0.01064532
-0.08198713 0.118580565 -0.102589846 -0.15611681 -0.07527812 -0.13844994 -0.03687211 -0.19863251

layer1.bias f4 [64]
00000000: 4b27 a5bd ce92 f3bd 83c1 663c 1270 92bc
00000010: 8212 173e 4dcc ff3c ea4a d03d bca2 83bd
00000020: 4fe2 403e 0dbb 3b3e be72 03be d65b 89bc
00000030: 0be1 08be d330 d93d 1222 f4bd 76c8 25bd
00000040: 5a6d 203e b317 10be f349 3b3e e85e 623d
00000050: 3a70 e83d 7d85 49bd d4fd 2b3e 8eb0 573d
00000060: f371 823d e148 073e 7610 03be a543 06be
00000070: b02d 613e 40e2 88bd 5b05 ccbd e284 98bb
00000080: 141c 86bc 130f 723b 134b 94bd d8f5 cd3d
00000090: f362 02be ba82 463d 7ed5 193e 22c0 5abc
000000a0: 85fa 5f3d 050f 303d 10fa febc 83d4 f5b9
000000b0: 66a5 3ebd 30f7 02be cf60 8ebd 0241 6a3e
000000c0: cef1 9e3a 5833 913d 4ef1 2a3e d2a2 17bd
000000d0: a384 63bd 1f24 b9bd 92a4 42bd d850 de3d
000000e0: 56ce e5bd 71d5 a23c 832e d43d d0ea 103e
000000f0: de88 d03d eb30 463d fd4a 183e f63e 003e
-0.08064135 -0.11893235 0.014084223 -0.017875705 0.14753154 0.031225348 0.10170539 -0.064275235
0.1883633 0.18333073 -0.1283674 -0.016767424 -0.13367097 0.106050156 -0.11920561 -0.040474378
0.15666714 -0.1407154 0.18289928 0.05526629 0.113495305 -0.04919957 0.16796046 0.05265861
0.0636939 0.13211395 -0.12799248 -0.13111742 0.21990085 -0.06683779 -0.09961959 -0.0046545127
-0.01637081 0.0036935254 -0.07240882 0.100566566 -0.12733059 0.048464514 0.15022847 -0.013351472
0.054682273 0.042983074 -0.031125098 -0.00046888375 -0.046544455 -0.12789607 -0.069520585 0.22876361
0.0012126507 0.07089871 0.16693613 -0.037020512 -0.055546414 -0.09040093 -0.047520228 0.108552635
-0.11220996 0.019877167 0.10360434 0.14152074 0.10182355 0.048386496 0.14872356 0.12524018

layer2.weight f4 [32, 64]
00000000: c336 b23c 63b4 97bd b627 5fbd 1d89 b93b
00000010: 050a b03c 7e65 583d 5b62 debc 8ef1 a13d
00000020: 202a 043e 61e1 99bb 5da6 a0bd aeba 0cbd
00000030: 4b01 85bd eaec d73d e324 edbd 25e8 cb3c
00000040: ba3a 6b3c 3b83 04bd 25ea c53d dbd9 cabb
00000050: d311 323d 9242 8bbd 0612 bd3c f4ef 33bc
00000060: 1243 a3bc bb9a 4bba 9181 b13d e6b7 f7bc
00000070: aa58 dfbc 2841 f1bd 26ac 44bd 3e3d a3bd
00000080: 2555 113e 8adb 9cbc 33e7 02bb 2885 c3bb
00000090: fbaf 8b3d 13ee 073d cddd f53d fa7f ddbc
000000a0: ff8b b13c a536 5d3c 18b0 72bd e2fb 5cbd
000000b0: ad0d 883d 5e1a 243d def4 093e c554 983d
000000c0: 4233 e4bc c263 6ebb 55f9 4bbd da61 88bd
000000d0: ab36 71bd 1087 56bd 71bd 8e3d 218a cb3d
000000e0: b741 c9bc ba17 9abd 09a6 98bd 8534 97bb
000000f0: 16ce a93d 3699 cdbb 93e9 0b3b d6d3 253e
00000100: f5b6 d93d 17e6 933d d051 6ebd 526f 763d
00000110: e28f 163d f0eb 00be 3e71 50bd cad8 623c
00000120: 0e6e 593c aa44 c33c 76a7 d7bd e865 02be
00000130: a5d6 003d 2386 ccbc 0276 9b3d 0d57 01bd
00000140: 7a4b 863d 83cb a8bc 35ee aa3d fef5 00be
00000150: 3dba 683c de28 b83c 03b6 66bd 1225 e53d
00000160: a1ad a2bd e66e b03d d379 eebc 3a76 513d
00000170: 3574 703d 9b2f 5c3d 8dc0 ba3d 0a60 9d3d
00000180: 8651 01be 695c 9f3d c2bb 84bd b27e 833c
00000190: 6963 9bbb e981 8b3d 744c b5bd f06c bdbd
000001a0: 4691 003e 24bf 0bbd 6372 d03c 32a2 a63c
000001b0: 1a05 333c 954a 003e 2e38 afbd 9a43 96bc
000001c0: f69c 1b3d ab23 a5bb d00a 113d 0da8 eabd
000001d0: 42ab 1f3e 560f 42bd 9662 47bb 7147 a6bc
000001e0: 403a cf3c 8049 d43d 43fb ab3c 19ae 993d
000001f0: fd72 19bd eadf af3c aa02 ec3d 19ff 38bc
00000200: f31d 83bd fac5 6439 7613 183e 76a1 903d
00000210: c748 0a3e e013 023e ad3a f03b ed58 963d
00000220: 38e9 b83d dbd8 803d 6909 203e 9703 1a3e
00000230: e606 6b3c 9751 133d ba76 9b3d 082f 42bd
00000240: 3bb0 083e 0e30 d53d b0a3 fa3d 8fe8 1f3d
00000250: 5cb2 31bd 8b95 ef3d 0b9a 55bc 146b 33bc
00000260: 6d0a 3e3d 6c04 9cbd cab7 6e3d 4b4d 83bd
00000270: 564c f53d 86a0 f1bd d23d 3c3d 9246 ee3d
00000280: 7677 ec3d 1ae8 1f3e 791c 8d3d da97 12be
00000290: e989 073e 45b7 4b3d ff7a 3e3d 524d 8fbd
000002a0: fa02 85bd 7909 b4bd c078 293e 2220 8b3d
000002b0: 6aed 0d3e b411 c03d 7515 e2bc b7da a1bd
000002c0: c75d bfba ae95 a9bb 62f4 713d 6e6e 933d
000002d0: 055f 4e3d cab1 303d 7266 e1bd f3bd 60bd
000002e0: 14eb 283d a265 9a3d cd99 f23c 0ed3 583c
000002f0: ea49 90bd 6a0d d5bd c3b4 c23c 0e1a 54bb
00000300: e6f0 dd3d bfaa a23d ea56 88bd 5a7d a13d
00000310: 7ca6 19bd 326f 063c fe25 8dbc 4e54 d8bd
00000320: f505 a33b d7ce a23c 7017 b2bd ebfa a03d
00000330: 2a8e 88bd 10ed d8bd 8867 fbbc 22ff 30bd
00000340: 4067 25bc b938 09bd 5aa6 923d a26a debd
00000350: b68f 55bc 20ce df3c 4cbd 473d 9f89 313e
00000360: 63a1 ee3d c4c6 a1bd 2e3e 04be b5c6 773c
00000370: e7db 49bd b3c1 bf3d 5297 293d ae5f ea3d
00000380: 3328 fb3c 46c9 f7bb f64f 16bd f714 8f3d
00000390: 3a72 24bd 76f4 bb3d bea8 d1bd 94df a33d
000003a0: d37d 01bd 5303 9abd dae3 45bd 4b36 c33d
000003b0: a542 863d ab3c 883d 5d36 fab9 ee2f 183d
000003c0: 7a16 7dbd 6b27 aebc 673b 293d 0262 073e
000003d0: 234e fc3d a54a febd 4826 f43c 7311 01bd
000003e0: a203 f73c 2866 4dbd f594 8c3d 6450 aabd
000003f0: 4b15 bc3d d6a5 0f3e 7251 23bd 15a5 c1bd
0.021754628 -0.07407453 -0.05448123 0.005662097 0.021489153 0.052831165 -0.027146509 0.07907401
0.12906694 -0.0046960567 -0.07844231 -0.03435772 -0.06494387 0.10543235 -0.11579301 0.024890969
0.014357263 -0.032351714 0.096638 -0.006190521 0.04347403 -0.06799807 0.023079883 -0.010982502
-0.019929443 -0.0007766892 0.08667291 -0.030239057 -0.027263958 -0.11780006 -0.048015736 -0.079706654
0.14192636 -0.019147653 -0.0019974231 -0.005966801 0.06820675 0.03318603 0.12005196 -0.027038563
0.0216732 0.013501798 -0.059249967 -0.05395115 0.066432334 0.04006421 0.13472316 0.074380435
-0.027856473 -0.0036375378 -0.04979833 -0.06659289 -0.058890026 -0.0523749 0.06969727 0.099384554
-0.024567468 -0.07524057 -0.07453544 -0.004614415 0.08291261 -0.0062743677 0.0021348938 0.1619409
0.106305994 0.072216205 -0.05818349 0.060164757 0.03675831 -0.12590003 -0.050889246 0.013845632
0.013270868 0.023836453 -0.105299875 -0.12734187 0.0314547 -0.024966305 0.075908676 -0.03157716
0.06557365 -0.020604854 0.08346216 -0.12593839 0.014204559 0.022480424 -0.056325924 0.11188711
-0.07943273 0.08614902 -0.029110825 0.05113814 0.058704574 0.053756338 0.091187574 0.076843336
-0.12628755 0.07781298 -0.064811245 0.016051624 -0.004742075 0.06811888 -0.08852473 -0.09249294
0.12555417 -0.034117833 0.025445169 0.020341013 0.010926509 0.12528451 -0.08555637 -0.018342782
0.037991486 -0.0050396523 0.035410702 -0.114578344 0.15592673 -0.047377907 -0.0030423752 -0.020297738
0.02529633 0.103655815 0.020993834 0.075039096 -0.037463177 0.021469075 0.11523946 -0.011291289
-0.06402197 0.00021817526 0.14851174 0.07062046 0.13504325 0.12702894 0.0073312134 0.0734118
0.09028858 0.06291362 0.1562859 0.15040432 0.014344906 0.035966482 0.07591005 -0.047408134
0.13348477 0.10409556 0.12238252 0.039040145 -0.043382987 0.11698445 -0.013037215 -0.010950822
0.04639666 -0.07618031 0.058280744 -0.06411227 0.119774505 -0.117981955 0.045957394 0.11634554
0.11546223 0.15615883 0.06890196 -0.1431574 0.13236202 0.049735326 0.046504017 -0.069971696
-0.06494708 -0.08790869 0.16549969 0.06793238 0.13860098 0.093783766 -0.027598122 -0.07903045
-0.0014600091 -0.005175314 0.059070952 0.07198797 0.050383586 0.043138303 -0.11005868 -0.05486865
0.041239813 0.07538916 0.029614354 0.013233913 -0.07045348 -0.10402949 0.023767835 -0.0032364163
0.10836963 0.079427235 -0.066572025 0.07885237 -0.037512287 0.008205222 -0.01723003 -0.10562955
0.0049750754 0.01987402 -0.086958766 0.07860359 -0.06667741 -0.10592091 -0.030689016 -0.043212064
-0.0100954175 -0.03350136 0.07160635 -0.10860182 -0.013034752 0.027319968 0.048764512 0.17337655
0.11651876 -0.0789924 -0.12914345 0.015123059 -0.04928198 0.09363117 0.041404076 0.11444031
0.030658817 -0.0075618355 -0.03669735 0.069864206 -0.040147997 0.091774866 -0.10237263 0.080016285
-0.031614136 -0.07520165 -0.048313 0.0953184 0.0655568 0.066521965 -0.0004772422 0.037155084
-0.061789013 -0.02125903 0.041316416 0.13220981 0.12319591 -0.12416581 0.02980341 -0.03151078
0.0301531 -0.050146252 0.06864349 -0.083161145 0.09183749 0.14028105 -0.039872594 -0.09455315

layer2.bias f4 [32]
00000000: 00f0 0a3e 3eb0 a3bd e3b7 c9bb 76b0 743d
00000010: 96c5 833d beec 063d a3a0 0a3e a365 8a3b
00000020: ed5c 763d fe60 c53d 5d65 553c 1c62 8a3d
00000030: c296 dd3d 3c6b 9d3d 7b51 c2bb 36df 0f3e
00000040: 8db4 0cbd 88ae 7c3d 7e85 893d 5daa f33d
00000050: eb54 7cbd 42ff 593d ba75 45bd 6992 c53d
00000060: aac0 963d 209b 94bd ecb0 823c f57a 8a3d
00000070: ed15 9b3d b4ec 113e 4042 843d 9af3 613d
0.13568115 -0.079926 -0.006155954 0.0597386 0.06434171 0.03294062 0.1353784 0.004223542
0.060147215 0.096376404 0.013024655 0.06756994 0.108197704 0.07686469 -0.0059301234 0.14049992
-0.034351874 0.061689883 0.06714915 0.118977286 -0.06160442 0.05322195 -0.048207976 0.09647066
0.073609665 -0.0725615 0.015953504 0.067617334 0.075725414 0.14250451 0.06457949 0.055163957

layer3.weight f4 [1, 32]
00000000: 30d7 043e a827 4ebe a2f2 1b3e d69e 8fbd
00000010: b857 163e 555a cb3d 35b1 5abd 95ab 323e
00000020: 1256 16be 2afd c03d e2d3 013e a220 a5bd
00000030: e646 cb3d 70fb 5dbe ba92 00be b132 0b3e
00000040: d997 0e3e 58db 54be 601a dd3d 502d 6e3d
00000050: 539e 613e 42bc 62be 285e 92bd 4a21 19be
00000060: a24e 21be 29d2 8fbd 1d1a 4fbe 5b56 383e
00000070: 4d58 e0bd 4501 d83d 572e 08be 567e 333d
0.12972713 -0.20132315 0.15229276 -0.070127174 0.146819 0.09929339 -0.053391654 0.17448266
-0.1468127 0.09423287 0.12678483 -0.08062865 0.09925632 -0.21677947 -0.12555972 0.13593556
0.13925113 -0.20786798 0.10796046 0.058148682 0.22033052 -0.22142127 -0.07146865 -0.14954105
-0.15752652 -0.07022507 -0.20224805 0.18001692 -0.10954342 0.10547117 -0.13298927 0.043821655
