src/models/centralized_model.pth (torch, 19597 bytes, 5 tensors)

layer1.weight f4 [64, 30]
0	0x3e967d1d	0.2939233
1	0x3e52efb1	0.20599248
2	0x3ec67aea	0.3876565
3	0x3eed5610	0.46354723
4	0x3e611ceb	0.21983688
5	0x3eb585cf	0.3545365
6	0x3e9f19fe	0.31074518
7	0x3f484e95	0.78244907
8	0x3c978c02	0.018499378
9	0xbe83fe2a	-0.2577985
10	0x3e7ec50d	0.24879856
11	0x3e5d48fd	0.21609874
12	0x3de7f32f	0.113256805
13	0x3e99ae84	0.30015957
14	0xbd32626a	-0.043550886
15	0x3e01355e	0.12618014
16	0x3d752314	0.059847906
17	0x3e579bd3	0.21055536
18	0x3e62a078	0.22131526
19	0xbe2a5bfc	-0.16636652
20	0x3e8d88e4	0.27643502
21	0x3ebb37d7	0.3656604
22	0x3eb55155	0.35413614
23	0x3ef24c43	0.47323808
24	0x3e146637	0.14492117
25	0x3e91f85f	0.28509805
26	0x3d82ec3d	0.06392715
27	0x3ecaf198	0.39637446
28	0x3ece05d1	0.40238813
29	0xbe1087fc	-0.14114374
30	0xbdac6cdc	-0.08419201
31	0x3d779302	0.060442932
32	0xbdd73321	-0.10507799
33	0xbdab8862	-0.08375622
34	0xbec151cf	-0.37757728
35	0x3de4fca5	0.111810006
36	0xbdfc6c26	-0.12325315
37	0xbea70bf5	-0.3262631
38	0x3de74e4a	0.11294229
39	0x3e09c1c1	0.13452817
40	0xbdf3d038	-0.11904949
41	0xbdef3318	-0.11679667
42	0x3ca1a693	0.01973275
43	0xbec0089e	-0.37506574
44	0x3e19883f	0.1499338
45	0x3e5ef2f0	0.21772361
46	0x3daaeb03	0.08345606
47	0xbcc08285	-0.023499737
48	0xbdba6500	-0.091012955
49	0x3e319218	0.17340887
50	0xbe7ed59b	-0.24886172
51	0x3cbb096c	0.022831641
52	0x3ceb2903	0.02870608
53	0xbdf9e63e	-0.12202118
54	0xbeac98cd	-0.33710328
55	0x3e37778b	0.17916696
56	0xbe9387c6	-0.28814524
57	0xbd866c11	-0.06563581
58	0x3ccfe785	0.025378952
59	0x3d83bcf6	0.06432526
60	0xbe0aa762	-0.13540414
61	0xbee8a75e	-0.4544019
62	0xbd7f8a35	-0.062387664
63	0xbe530f99	-0.20611419
64	0xbd414924	-0.047188893
65	0x3dd91f47	0.10601669
66	0xbda9ab78	-0.08284658
67	0xbe22fb3a	-0.15916148
68	0xbde95c5d	-0.1139457
69	0xbdd09192	-0.10184015
70	0xbe3e4703	-0.18581776
71	0xbeae3f98	-0.34032893
72	0xbd662258	-0.056185097
73	0xbe821467	-0.2540619
74	0xbd7a7e0c	-0.061155364
75	0x3d8072ff	0.06271934
76	0x3de4bc60	0.11168742
77	0x3d5debe9	0.05418006
78	0x3d885eac	0.06658682
79	0xbc73da15	-0.014883538
80	0xbe715244	-0.23566538
81	0xbf09a011	-0.53759867
82	0xbd84df43	-0.06487896
83	0xbe2c4347	-0.1682254
84	0x3d4e41de	0.050355785
85	0xbdc46c50	-0.095909715
86	0x3dfe109c	0.12405512
87	0x3d5315bc	0.0515344
88	0xbe25f838	-0.16207969
89	0xbd9ff7e6	-0.07810955
90	0xbeb268c6	-0.3484556
91	0xbd284226	-0.04107871
92	0x3c66331a	0.0140502695
93	0x3d80b34c	0.06284198
94	0xbe6dd99b	-0.23227541
95	0x3e35c877	0.17752253
96	0xbda625f3	-0.08112707
97	0xbdf4e17c	-0.1195707
98	0xbd9391ec	-0.07205567
99	0x3d85c9f4	0.0653266
100	0xbcc2c29e	-0.023774441
101	0x3d49eaa4	0.049296036
102	0xbe104f1d	-0.1409268
103	0xbdcb71d4	-0.0993382
104	0xbd5c3623	-0.053762566
105	0x3e9444bb	0.28958687
106	0x3e064c41	0.13115026
107	0xbc87dacf	-0.016583828
108	0x3daef603	0.08543017
109	0x3cc0a33f	0.023515342
110	0xbe4289a4	-0.18997818
111	0xbd9500df	-0.07275557
112	0xbd0666cb	-0.032812875
113	0xbe56a744	-0.20962244
114	0xbe0749b7	-0.13211714
115	0xbddc5c98	-0.10759848
116	0x3ca968e5	0.0206799
117	0xbea1c932	-0.31598812
118	0xbe61db8b	-0.22056405
119	0x3def70d9	0.11691446
120	0x3e01f5c7	0.12691413
121	0x3d4c83c6	0.049930356
122	0xbe04adc3	-0.1295691
123	0x3e5db0e3	0.21649508
124	0x3e4290b6	0.19000515
125	0x3df92066	0.12164383
126	0x3da40fdf	0.0801084
127	0x3e7a131d	0.24421354
128	0x3e26bcda	0.16282979
129	0xbda919df	-0.08256888
130	0xbc5e78a2	-0.013578566
131	0x3d4e54c5	0.05037381
132	0xbe1a42ee	-0.15064594
133	0x3ddfa693	0.109204434
134	0xbea1c775	-0.31597486
135	0xbd78bf2f	-0.060729202
136	0xbda300fb	-0.079591714
137	0xbeb08c43	-0.3448201
138	0xbe273ca6	-0.1633173
139	0xbe861b92	-0.2619291
140	0x3e326a0a	0.17423263
141	0x3e146cb4	0.14494592
142	0x3df6c6f3	0.12049665
143	0x3ee3b268	0.4447205
144	0x3e42c0d3	0.19018869
145	0x3e1972a5	0.1498514
146	0x3e941ebf	0.28929707
147	0x3e66056b	0.22463004
148	0x3eabb9f1	0.335403
149	0x3e0640d4	0.13110667
150	0xbdd40f77	-0.10354512
151	0x3dd77291	0.10519899
152	0xbdd1e0f1	-0.10247982
153	0x3d7a649b	0.0611311
154	0xbe52729b	-0.20551531
155	0xbea549b6	-0.322828
156	0x3cd239cc	0.025662325
157	0x3cb44cc5	0.022009263
158	0xbe967c0b	-0.29391512
159	0xbe9caf2c	-0.30602396
160	0xbd646e8b	-0.055769484
161	0xbe842fd5	-0.25817743
162	0xbdfaca4b	-0.122456156
163	0x3e140ba4	0.14457566
164	0x3e3d6fa6	0.18499622
165	0xbeaee5c9	-0.34159687
166	0x3d41a81a	0.047279455
167	0x3c49b578	0.012311332
168	0x3e0054d6	0.12532362
169	0xbe872f67	-0.26403353
170	0x3c7d5f9f	0.015464692
171	0x3e4581eb	0.19287841
172	0x3e184752	0.14870957
173	0x3e2d3e36	0.16918263
174	0x3e220b61	0.15824653
175	0xbe6a37ac	-0.228728
176	0xbe699e47	-0.22814284
177	0x3cf46f5e	0.02983826
178	0x3da0f537	0.07859271
179	0xbe6d4f42	-0.23174766
180	0x3df1f798	0.11814803
181	0xbe876850	-0.26446772
182	0xbe2c0e07	-0.16802226
183	0xba7447d2	-0.00093185634
184	0xbdc94a0b	-0.09828576
185	0x3e11f5d2	0.1425393
186	0x3db63328	0.08896476
187	0xbe128746	-0.14309415
188	0xbdbdeee7	-0.09274083
189	0xbd99f757	-0.075178795
190	0xbd06b551	-0.03288776
191	0xbdbc6b9e	-0.09200214
192	0xbd1f2d4a	-0.03886155
193	0x3bf63345	0.007513436
194	0x3d5c79f6	0.05382725
195	0xbdad9ad0	-0.08476794
196	0x3d4eabd5	0.05045684
197	0xbe4fe592	-0.20302418
198	0x3d4b2119	0.04959211
199	0xbe45298a	-0.19254127
200	0x3d4ce44f	0.05002242
201	0xbe06ce70	-0.13164687
202	0xbc8cac6f	-0.017172066
203	0xbc3da677	-0.011575333
204	0xbda916e1	-0.08256317
205	0xbd702a29	-0.058633957
206	0x3c0b7d47	0.008513755
207	0xbe394fcd	-0.18096848
208	0xbd04d769	-0.032431994
209	0x3e471785	0.19442566
210	0xbd9da65f	-0.076977484
211	0xbdc05141	-0.09390498
212	0xbd4f51b5	-0.05061503
213	0x3e311448	0.17292893
214	0xbdd03884	-0.101670295
215	0xbdb06d3e	-0.08614586
216	0xbd7cfa04	-0.06176187
217	0x3dc2f00f	0.09518444
218	0x3b713768	0.0036806706
219	0x38a4d040	7.858919e-05
220	0x3dabc08e	0.08386336
221	0xbd8a6af5	-0.06758682
222	0xbe00f83a	-0.12594691
223	0xbdadcb44	-0.084860355
224	0xbdd60b95	-0.10451428
225	0x3c9423ef	0.01808354
226	0xbc06d6a6	-0.008229887
227	0xbc17e9c0	-0.009272039
228	0x3e2193b3	0.15778999
229	0xbdbb5f45	-0.091490306
230	0x3e28830a	0.16456237
231	0xbda3ef47	-0.08004623
232	0x3d57db17	0.052699175
233	0x3e68f90c	0.22751254
234	0xbaa86341	-0.0012846963
235	0x3dce598b	0.10075673
236	0xbdf40317	-0.11914652
237	0x3ce85ac7	0.028363599
238	0x3e982274	0.29713786
239	0x3d50a026	0.05093398
240	0xbed02e4c	-0.40660322
241	0xbf096143	-0.53664035
242	0xbea261f4	-0.31715357
243	0xbe84e9e3	-0.2595969
244	0x3e827a37	0.25483868
245	0xbd1d84c4	-0.038456693
246	0xbe19f835	-0.1503609
247	0xbe401556	-0.18758139
248	0x3eb0a4e1	0.34500793
249	0x3e5ffd8b	0.21874063
250	0xbe5a93ff	-0.21345519
251	0xbec5c7d4	-0.3862902
252	0xbd3ed9e4	-0.046594515
253	0xbe7b227b	-0.24524872
254	0x3e74d90b	0.2391092
255	0x3d966fc9	0.0734554

layer1.bias f4 [64]
0	0xbe54cfa4	-0.20782334
1	0x3d760643	0.060064565
2	0xbe8fd1d3	-0.2808977
3	0xbddb3916	-0.10704248
4	0x3d1f259d	0.03885423
5	0xbca291bb	-0.01984488
6	0xbe2180fd	-0.15771861
7	0xbdbe6d60	-0.092982054
8	0xbe0af657	-0.13570534
9	0xbe59a502	-0.21254352
10	0xbe66acb5	-0.2252682
11	0xbd03cc34	-0.032177165
12	0xbd3df332	-0.046374507
13	0xbde7eeaf	-0.11324822
14	0x3e33e773	0.1756876
15	0xbe1ca58a	-0.15297523
16	0xbd8967af	-0.06709229
17	0xbd903833	-0.07041969
18	0xbe67fe7a	-0.22655669
19	0x3edda058	0.43286395
20	0x3d040925	0.032235283
21	0xbdcb3aa9	-0.09923298
22	0xbe27a404	-0.16371161
23	0xbd254dc4	-0.040357366
24	0xbde0a01a	-0.10968037
25	0xbe024398	-0.12721097
26	0x3cb35417	0.021890683
27	0xbdee9029	-0.1164859
28	0x3e13eb09	0.14445128
29	0xbea11e15	-0.31468263
30	0xbedefb3d	-0.43551055
31	0x3e0a4764	0.13503796
32	0x3e32e99a	0.17471924
33	0x3e38d634	0.18050462
34	0x3d76cf74	0.060256436
35	0xbea88eb9	-0.3292139
36	0x3e416570	0.18886352
37	0xbe05aa67	-0.13053285
38	0x3e6b39e3	0.22971301
39	0x3e254636	0.16140065
40	0x3d46097b	0.048348885
41	0x3de2d431	0.110756285
42	0x3e852096	0.26001424
43	0xbe6b1334	-0.22956544
44	0xbd215faa	-0.039397873
45	0x3cb237ae	0.021755066
46	0xbeb99105	-0.36243454
47	0xbda02abb	-0.0782065
48	0xbe6f09a9	-0.23343529
49	0x3e253871	0.16134812
50	0x3d6150cd	0.0550087
51	0x3ca0b50d	0.019617582
52	0xbe91ec71	-0.28500703
53	0x3db1f3b9	0.086890645
54	0x3e233e56	0.15941748
55	0x3e692fdf	0.22772168
56	0xbcbd886f	-0.023136346
57	0xbe02a81f	-0.12759446
58	0xbe367fbc	-0.17822164
59	0x3e70b839	0.23507775
60	0xbe898fd6	-0.2686755
61	0xbe22a0c9	-0.15881647
62	0x3d67e30b	0.05661301
63	0xbd9f1de0	-0.0776937

layer2.weight f4 [32, 64]
0	0x3d0e0d99	0.034680936
1	0xbe14850d	-0.1450388
2	0x3df50c16	0.11965196
3	0xbd2feb3a	-0.04294894
4	0xbdb7b427	-0.08969908
5	0xbd030d7b	-0.031995278
6	0xbcae5742	-0.021281842
7	0xbd94a6d8	-0.072583854
8	0x3da2a685	0.07941917
9	0xbd4e6829	-0.050392304
10	0xbe143f91	-0.14477374
11	0xbd1aa797	-0.037757482
12	0x3d192a30	0.03739375
13	0xbc2c2594	-0.010507006
14	0xbc387ffc	-0.011260983
15	0x3ca26688	0.019824281
16	0xbe098fa6	-0.13433704
17	0x3d34138d	0.043963958
18	0xbdc36413	-0.09540572
19	0xbbbbc439	-0.0057301787
20	0x3c25aca1	0.010111959
21	0xbe21f41b	-0.15815775
22	0xbba4ff27	-0.0050352993
23	0xbe169ec3	-0.14709
24	0xbe08b694	-0.13350898
25	0xbb9ff8de	-0.004881962
26	0x3d16dd6e	0.036832266
27	0xbc69bdcd	-0.014266443
28	0x3e040a41	0.12894537
29	0x3dfe3322	0.124120966
30	0xbdcd948d	-0.100380994
31	0x398508c2	0.00025374262
32	0xbb98d8c7	-0.0046645137
33	0xbd3afe49	-0.04565266
34	0xbe2a6b2d	-0.16642447
35	0xbde491ce	-0.111606225
36	0xb9a9d406	-0.00032392162
37	0xbd24aaac	-0.040201828
38	0xbe0571fc	-0.13031763
39	0xbe397bde	-0.18113658
40	0x3c9b8513	0.018984353
41	0xbe1c086d	-0.15237589
42	0x3d9f92cf	0.077916734
43	0xbdb9984c	-0.090622514
44	0xbd62b72b	-0.055350464
45	0x3d470b93	0.048595022
46	0xbe25b10f	-0.16180824
47	0x3d6dffd3	0.0581053
48	0xbbf283fd	-0.007400988
49	0xbd0feaf6	-0.035136186
50	0x3b687490	0.0035469867
51	0x3db51db0	0.08843553
52	0xbdbca420	-0.09210992
53	0xbe0873b2	-0.13325384
54	0x3c74da25	0.014944588
55	0xbe3b24d0	-0.18275762
56	0xbd2f0a33	-0.042734336
57	0x3da79569	0.081827946
58	0xbe10ea67	-0.14151917
59	0xbe2c06f1	-0.16799523
60	0xbdf92e21	-0.121670015
61	0x39607908	0.00021407392
62	0x3d12822d	0.035768677
63	0xbce00001	-0.027343752
64	0xbcc8faeb	-0.02453371
65	0x3d1cc40f	0.038272914
66	0x3db16f07	0.08663755
67	0xbc8d18da	-0.017223764
68	0xbcea6f01	-0.028617384
69	0xbcdeb177	-0.027184231
70	0x3dfe6e5d	0.12423394
71	0x3e1dbf07	0.15404902
72	0x3dcb31e6	0.09921627
73	0x3d3d2a93	0.04618318
74	0xbced70cc	-0.02898445
75	0x3d7eac04	0.062175766
76	0xbea5f5d0	-0.32414103
77	0xbe034c51	-0.12822081
78	0x3eac6912	0.33673912
79	0x3dc6712f	0.09689557
80	0xbdcb389f	-0.09922909
81	0xbe627227	-0.22113858
82	0xbe81bec5	-0.25340858
83	0x3f117d30	0.56831646
84	0x3d410353	0.04712231
85	0xbd8bc097	-0.06823843
86	0xbe776cf2	-0.24162653
87	0xbd3a4d3c	-0.045483813
88	0xbd054670	-0.032537878
89	0x3e58acbe	0.21159646
90	0x3ee06c95	0.43832842
91	0xbddb19c2	-0.10698272
92	0x3e607b7f	0.2192211
93	0x3de22604	0.11042407
94	0x3e5092c4	0.20368487
95	0x3e28f289	0.1649877
96	0xbe2863bc	-0.16444296
97	0xbd928d39	-0.07155842
98	0xbea4a4cf	-0.3215699
99	0x3e0739a2	0.13205579
100	0x3e3429a9	0.17594017
101	0x3e94478c	0.28960836
102	0x3d1ac1dc	0.037782535
103	0x3e524bc1	0.2053671
104	0x3e4bd898	0.19906843
105	0x3eb1249a	0.34598237
106	0x3eb052db	0.34438214
107	0x3e8e8b9a	0.27840883
108	0xbe837fd6	-0.2568347
109	0xbec99e1a	-0.39378434
110	0xbebee09a	-0.37280732
111	0x3df9114c	0.12161502
112	0xbd04d54e	-0.032429986
113	0x3ea956a4	0.33073914
114	0xbe0408d2	-0.1289399
115	0x3cd2a147	0.025711669
116	0x3e1954cf	0.14973758
117	0x3cb63b7b	0.02224516
118	0x3e34fe19	0.17675056
119	0x3e227a79	0.15867032
120	0xbdb09ab0	-0.08623254
121	0x3e051eee	0.1300008
122	0x3df9306d	0.121674396
123	0xbe67f543	-0.22652154
124	0xbdcc6614	-0.09980407
125	0x3df99b41	0.121878155
126	0x3e4bddf9	0.19908895
127	0xbdb5bcf6	-0.08873932
128	0x3e8afdd9	0.27146795
129	0xbd1aafcd	-0.037765313
130	0xbdc01088	-0.09378153
131	0xbaba6b39	-0.0014222629
132	0x3dd4698c	0.10371694
133	0x3eab2819	0.3342903
134	0x3d6a5633	0.057211112
135	0xbd9efff7	-0.07763665
136	0xbed74669	-0.42045906
137	0x3d0e15e2	0.034688838
138	0x3df5d830	0.12004125
139	0x3d8fd36a	0.07022746
140	0x3e7281bf	0.23682307
141	0x3ebdcc63	0.37069997
142	0xbd875f13	-0.06609931
143	0x3e334b67	0.17509232
144	0x3ec110fc	0.3770827
145	0x3eefc63f	0.46830937
146	0x3e93e20c	0.28883398
147	0xbe5e7d35	-0.2172745
148	0x3ca12d04	0.019674785
149	0x3e6de0a9	0.23230232
150	0x3e918c10	0.28427172
151	0x3dc08a38	0.09401363
152	0xbd5625a5	-0.052281994
153	0xbd957c07	-0.07299047
154	0xbe91464d	-0.28373948
155	0x3e9225d4	0.28544486
156	0xbdf7bb09	-0.12096221
157	0x3db4802e	0.08813511
158	0x3c9e1306	0.01929618
159	0xbe770f39	-0.241269
160	0x3e8e862a	0.27836734
161	0x3e6ae5cb	0.22939222
162	0x3f0ebcc2	0.5575677
163	0x3ae94d65	0.0017799555
164	0xbe8451fc	-0.258438
165	0xbe73c624	-0.23806053
166	0xbf1a1222	-0.6018392
167	0x3d16634f	0.0367158
168	0xbd5b7cbf	-0.053585764
169	0xbe38ad65	-0.18034895
170	0x3d4186f5	0.047247846
171	0xbd83f2e5	-0.06442813
172	0x3d13933e	0.036029093
173	0x3f05e975	0.5230935
174	0x3eadbbab	0.33932242
175	0xbe8273ff	-0.25479123
176	0x3e530cbd	0.20610328
177	0xbe8d6242	-0.27614027
178	0x3eb1f19b	0.34754643
179	0x3d6fa585	0.05850746
180	0x3dad63e9	0.08466322
181	0x3e57352f	0.21016382
182	0xbef604ad	-0.48050442
183	0xbdb23599	-0.08701629
184	0x3e1b116e	0.15143368
185	0xbe8f4b4e	-0.2798714
186	0xbe238ba3	-0.15971236
187	0x3e910960	0.28327465
188	0x3e1ecdee	0.15508243
189	0xbe8f0516	-0.27933568
190	0x3dfacb9e	0.12245868
191	0x3e7df444	0.24800211
192	0xbe231014	-0.15924102
193	0x3e5d1aec	0.21592301
194	0x3e6686aa	0.22512308
195	0x3d9a21fe	0.07526015
196	0xbbc84a76	-0.006112392
197	0x3d85412c	0.06506571
198	0x3e08ae9a	0.13347855
199	0x3e01df06	0.12682733
200	0x3d9525ff	0.07282638
201	0x3e063e32	0.13109663
202	0x3bb64a05	0.005563023
203	0x3d340d41	0.043957952
204	0xbe90450d	-0.28177682
205	0xbe221e57	-0.15831886
206	0x3e32c023	0.17456107
207	0x3e4650b7	0.19366728
208	0xbea2ac9b	-0.31772313
209	0xbe98fe5b	-0.29881558
210	0xbea0d249	-0.31410435
211	0x3f1d38e4	0.61414933
212	0x3e227977	0.15866648
213	0xbd617f79	-0.055053208
214	0xbe1a5218	-0.15070379
215	0x3e1be04f	0.15222286
216	0x3c98d040	0.018653989
217	0x3e5f82b9	0.2182721
218	0x3edfde6f	0.4372439
219	0xbdd87cb5	-0.10570661
220	0x3ebafd1d	0.36521235
221	0x3e3e5ec3	0.18590836
222	0x3e1a67dd	0.15078683
223	0xbda12483	-0.07868292
224	0xbe146cee	-0.14494678
225	0xbda9a7c8	-0.08283955
226	0xbe869775	-0.26287428
227	0x3d8ac475	0.067757525
228	0x3e8840b5	0.26611868
229	0x3e6f8047	0.23388778
230	0x3e3a7882	0.18210033
231	0x3e025374	0.12727147
232	0x3e1b2534	0.1515091
233	0x3e232968	0.15933764
234	0x3e466b89	0.19376959
235	0x3e95a565	0.2922775
236	0xbe57599a	-0.21030274
237	0xbed60f42	-0.41808516
238	0xbe7dea9b	-0.24796526
239	0x3e726aca	0.2367355
240	0xbd9fb85f	-0.07798838
241	0x3eb03b84	0.34420407
242	0xbe1dc462	-0.15406945
243	0x3da291b7	0.07937949
244	0xbd0fc2d0	-0.035097897
245	0xbc78982e	-0.015173001
246	0x3e2e4ae2	0.17020753
247	0x3e3b56e5	0.18294866
248	0x3d41876f	0.0472483
249	0x3d4bca70	0.049753606
250	0x3e3e3e0c	0.18578357
251	0xbe0b0567	-0.1357628
252	0xbd16d166	-0.03682079
253	0x3e167ace	0.14695284
254	0x3e3d345e	0.18477008
255	0xbd9e1015	-0.07717911

layer2.bias f4 [32]
0	0xbe188107	-0.1489297
1	0x3e1d2870	0.15347457
2	0x3d7f0e6d	0.062269617
3	0x3db12c8b	0.08651074
4	0x3e924cab	0.28574118
5	0x3d88b7cb	0.06675681
6	0x3c804a20	0.015660346
7	0x3b6f8611	0.0036548416
8	0x3d52ab77	0.051433053
9	0x3e945f36	0.2897889
10	0x3de00322	0.109380975
11	0xbdf4802f	-0.119385116
12	0x3a6aa72e	0.00089513033
13	0x3dd1d11f	0.10244965
14	0xbe0401bc	-0.12891287
15	0xbe275efa	-0.16344824
16	0xbc96162b	-0.018321117
17	0xbd517344	-0.051135316
18	0x3e20c812	0.15701321
19	0x3dc4f940	0.09617853
20	0x3e2a4e55	0.16631444
21	0xbdfb7734	-0.122785956
22	0x3dbd1a24	0.092335016
23	0x3d4eae6e	0.050459318
24	0xbe091e19	-0.13390388
25	0xbe04d7c9	-0.1297294
26	0xbd616e04	-0.05503656
27	0x3d8676f8	0.0656566
28	0x3c1a51b0	0.00941889
29	0xbdf8cbed	-0.12148271
30	0x3c17f706	0.009275204
31	0x3e75cc11	0.24003626

layer3.weight f4 [1, 32]
0	0x3c6286be	0.01382607
1	0x3e921dff	0.2853851
2	0xbeab7cd3	-0.3349367
3	0x3e79454e	0.24342844
4	0x3e80fce9	0.25192955
5	0x3ec59e59	0.38597372
6	0x3e8fc72c	0.28081644
7	0xbe9d0444	-0.30667317
8	0xbe5c853a	-0.21535197
9	0x3e5d0d3e	0.21587083
10	0x3d145aab	0.03621928
11	0xbd8368e6	-0.06416492
12	0x3f06808f	0.52539915
13	0xbf047279	-0.5173717
14	0xbe4a5d78	-0.19762218
15	0xbd81894d	-0.06325016
16	0xbe5e95a7	-0.21736775
17	0xbed0c979	-0.4077871
18	0x3e6e1c73	0.2325304
19	0x3e7db36a	0.24775472
20	0x3e9cb17f	0.3060417
21	0xbea8f093	-0.32996044
22	0x3e1e35ce	0.15450212
23	0xbeb3a245	-0.3508474
24	0x3c775ddb	0.0150980605
25	0xbe248dc5	-0.16069706
26	0xbedd71d3	-0.43250903
27	0xbed7266a	-0.42021495
28	0xbdebfc33	-0.115227126
29	0x3d0dead9	0.034647796
30	0x3da9b0c5	0.08285669
31	0x3eb64726	0.35601157
