src/models/global_model.pth (torch, 19537 bytes, 5 tensors)

layer1.weight f4 [64, 30]
0	0x3df6ad04	0.12044719
1	0x3e24c890	0.16092134
2	0x3d09a31e	0.033602826
3	0x3e2e8d02	0.17045978
4	0x3ceb548a	0.028726835
5	0x3d1dbd71	0.038510744
6	0xbe213d0c	-0.15745944
7	0x3ddab69a	0.1067936
8	0x3e5a9876	0.21347222
9	0xbde63b9d	-0.11241839
10	0x3e45d64f	0.19320033
11	0xbe42240a	-0.1895906
12	0x3e3dd15a	0.18536893
13	0x3e7307e1	0.23733474
14	0xbcef97bb	-0.029247155
15	0xbe0d5bd1	-0.13804556
16	0x3e3e7373	0.18598728
17	0x3df9c452	0.12195648
18	0x3e2df4b6	0.16987881
19	0x3cb93d1c	0.022612147
20	0xbcaeded5	-0.021346489
21	0xbd3c89cf	-0.046029862
22	0xbd62466f	-0.055242952
23	0x3e7e14d2	0.2481263
24	0x3c7f54aa	0.01558415
25	0xbe877249	-0.2645438
26	0xbc491337	-0.012272648
27	0xbd8faab8	-0.07014984
28	0x3d842b70	0.064535975
29	0xbea1ee8c	-0.3162731
30	0x3e8a34f0	0.26993513
31	0xbea072a6	-0.3133747
32	0x3e8dffaa	0.2773412
33	0x3e6d3fc6	0.23168859
34	0x3cd67818	0.026180312
35	0x3da3ad20	0.07992005
36	0x3cd460b8	0.025925025
37	0x3e4d1708	0.20028317
38	0xbdb864ef	-0.090036266
39	0xbd9f89cf	-0.07789957
40	0x3dc78e76	0.09743969
41	0xbcb330c2	-0.021873835
42	0x3e6575fc	0.22408289
43	0x3ddbb3a4	0.10727623
44	0x3ca05350	0.019570976
45	0xbd5eec6c	-0.05442469
46	0xbd081a05	-0.03322794
47	0x3c1ad6fe	0.009450672
48	0x3e9c72a6	0.3055622
49	0xbe87d4ea	-0.26529628
50	0xbddeb536	-0.10874407
51	0xbc013762	-0.007886739
52	0xbd8c95b1	-0.06864489
53	0x3e4ff52b	0.20308368
54	0x3e0ceb1b	0.1376156
55	0x3e150f50	0.14556623
56	0x3d3325be	0.043737166
57	0x3cc4a6d9	0.02400534
58	0x3e21a188	0.15784276
59	0xbcceed62	-0.025259677
60	0xbdaeab25	-0.08528737
61	0xbe084e16	-0.13311037
62	0xbc96ee57	-0.018424196
63	0xbe2b04b8	-0.16701019
64	0x3bdb623e	0.006695061
65	0xbc939525	-0.018015454
66	0x3d6e0dfb	0.0581188
67	0xbd31ded9	-0.043425415
68	0xbdd8c4d0	-0.10584414
69	0xbd853c0d	-0.065055944
70	0x3de9d5af	0.1141771
71	0x3dd6eea3	0.10494735
72	0x3c9bc2fe	0.019013878
73	0xbe510fd4	-0.20416194
74	0x3c7f7257	0.015591226
75	0xbe4cc87c	-0.19998354
76	0xbd67b3ab	-0.05656783
77	0x3daacd95	0.08339993
78	0x3d517391	0.051135603
79	0x3e16fe97	0.14745556
80	0xbdb3ce44	-0.087795764
81	0xbdb54e40	-0.08852816
82	0x3dd3d833	0.10343971
83	0xbd9b3cb5	-0.07579938
84	0x3def4928	0.11683875
85	0xbd0730b6	-0.03300544
86	0xbcdf407a	-0.027252425
87	0xbbdb5f98	-0.0066947453
88	0xbe2faf19	-0.17156638
89	0x3caac78a	0.0208471
90	0xbdddab00	-0.10823631
91	0xbe8b366b	-0.27189955
92	0x3e07136a	0.13191
93	0x3e5956b7	0.21224485
94	0xbea55bf0	-0.32296705
95	0xbe422232	-0.18958357
96	0x3dca7afe	0.0988674
97	0xbcda96c6	-0.026683223
98	0xbe24f3ee	-0.16108677
99	0xbe3bb0af	-0.18329118
100	0xbe3c3746	-0.1838046
101	0x3db4385e	0.08799814
102	0xbde513bc	-0.11185405
103	0xbe1816c1	-0.1485243
104	0x3e1b90c3	0.15191941
105	0xbe260823	-0.16214041
106	0xbe63269a	-0.22182694
107	0x3d99c7b8	0.075087965
108	0xbe24c32d	-0.16090079
109	0xbe076390	-0.13221574
110	0xbbf6a7ac	-0.0075273123
111	0xbc479141	-0.012180627
112	0xbd00ea05	-0.03147318
113	0xbec44421	-0.38333228
114	0xbe825cb6	-0.25461358
115	0xbdfc00a4	-0.1230481
116	0x3db30c56	0.08742587
117	0xbdc629d5	-0.096759476
118	0xbe33c282	-0.17554668
119	0xbdda1d72	-0.106501475
120	0xbb0a41f6	-0.0021096445
121	0xbe14a628	-0.14516509
122	0xbc9e948f	-0.019357948
123	0xbd0a3fc5	-0.03375222
124	0xbdf90528	-0.121591866
125	0xbe67f704	-0.22652823
126	0xbd319d3b	-0.043362837
127	0xbe698654	-0.22805148
128	0x3e2dc464	0.16969448
129	0x3ca724ac	0.020403229
130	0x3d98aa6e	0.07454382
131	0x3d0df81f	0.034660455
132	0xbe0b9a09	-0.13632978
133	0x3d0665ff	0.032812115
134	0xbd2cb8fb	-0.0421686
135	0xbddb004a	-0.106934145
136	0xbe69faa6	-0.22849521
137	0xbc60a9c5	-0.013712351
138	0x3d7ea2b2	0.062166877
139	0xbd9df43e	-0.07712601
140	0x3d4f60e6	0.05062952
141	0xbe5075a3	-0.20357375
142	0x3d5e95e4	0.054342166
143	0xbddc842f	-0.107673995
144	0xbddfdf18	-0.10931224
145	0x3e655363	0.22395091
146	0xbd7927a6	-0.060828827
147	0x3e14ad1c	0.14519161
148	0x3e0bebde	0.13664195
149	0xbe692eb0	-0.22771716
150	0xbddb5aec	-0.10710701
151	0xbdb762ef	-0.08954417
152	0xbe8e6672	-0.27812535
153	0xbe8f6ce5	-0.28012767
154	0x3e77f5f4	0.24214917
155	0xbd88328e	-0.066502675
156	0x3e36cffa	0.17852774
157	0xbd88878c	-0.066664785
158	0xbc39f643	-0.011350217
159	0xbcfd48e8	-0.030918553
160	0x3d8109fb	0.06300732
161	0x3defb326	0.11704092
162	0xbd4dc3a8	-0.05023542
163	0xbe95fefe	-0.29296106
164	0x3cf8742e	0.030328836
165	0xbe28575a	-0.16439572
166	0xbe144784	-0.14480406
167	0x3dd42501	0.103586204
168	0xbc28ea35	-0.010309746
169	0xbd52c2ec	-0.051455423
170	0xbe68d063	-0.22735743
171	0xbe029c5b	-0.12754957
172	0x3df0e02f	0.117615096
173	0xbe28d1d3	-0.16486292
174	0xbe28494d	-0.16434212
175	0xbe426bfc	-0.18986505
176	0xbeaa083f	-0.33209416
177	0x3e4318d4	0.1905244
178	0xbccfb894	-0.025356568
179	0xbe7eab32	-0.24869993
180	0xbdcf2105	-0.1011372
181	0x3e74c169	0.23901905
182	0x3dc8915b	0.09793349
183	0xbd9e1632	-0.07719077
184	0xbc11ef67	-0.008907176
185	0x3e19b647	0.1501094
186	0x3df06dc4	0.11739686
187	0xbc3e58cc	-0.0116178505
188	0xbddc4066	-0.107544705
189	0xbdd3984c	-0.10331783
190	0xbd994a04	-0.074848205
191	0xbc189b74	-0.009314407
192	0xba82b2f8	-0.000997155
193	0x3e3e51be	0.1858587
194	0x3e18423c	0.14869016
195	0xbda79c95	-0.081841625
196	0xbe609aac	-0.21934003
197	0xbbb24b17	-0.0054410803
198	0x3e35d277	0.17756067
199	0x3d78c8a7	0.060738232
200	0xbdf97836	-0.121811315
201	0xbe03db97	-0.12876736
202	0x3d20b22c	0.039232418
203	0x3d94a5f2	0.07258214
204	0xbd1a1bb4	-0.037624076
205	0xbe5b06ea	-0.21389356
206	0x3ca20a9a	0.019780446
207	0xbe34fa06	-0.17673501
208	0xbcb95e7f	-0.022628067
209	0x3e6ea16b	0.23303764
210	0x3e198c1f	0.14994858
211	0x3dc72f8c	0.09725866
212	0xbe4d8a38	-0.20072258
213	0xbe10aacc	-0.14127654
214	0xbcb4aad3	-0.022054112
215	0x3e627da6	0.22118244
216	0x3d24e9b2	0.04026193
217	0x3aa2a218	0.0012407927
218	0xbcf10297	-0.02942018
219	0xbd225bff	-0.039638516
220	0xbe1afe75	-0.1513613
221	0x3d51305d	0.051071513
222	0x3ca22f42	0.019797925
223	0xbd46f960	-0.048577666
224	0xbde0db61	-0.10979343
225	0x3df400f0	0.11914241
226	0x3d818158	0.063234985
227	0x3db1f82c	0.08689913
228	0xbe116bc4	-0.14201266
229	0xbe0c7be4	-0.13719136
230	0xbda43504	-0.080179244
231	0x3e70fdd2	0.23534325
232	0x3d93c6ba	0.072156385
233	0x3e132a92	0.14371708
234	0x3a7a1098	0.0009539216
235	0x3d348b63	0.044078242
236	0x3cd64232	0.026154611
237	0xbe81dcb6	-0.25363702
238	0xbdb59a0f	-0.08867275
239	0xbd8be77a	-0.0683126
240	0xbd191617	-0.037374582
241	0xbe5620fe	-0.20911023
242	0xbe4623d1	-0.193496
243	0xbdc8cc23	-0.09804561
244	0xbe75815d	-0.2397513
245	0xbe3b6076	-0.18298516
246	0xbdf25e3e	-0.118343815
247	0x3dedfe6c	0.11620793
248	0x3cdb4b9c	0.026769452
249	0x3df4b36d	0.11948285
250	0xbe8346df	-0.25640008
251	0xbe0a0045	-0.13476665
252	0x3d42a3ce	0.047519498
253	0xbaae2498	-0.0013286052
254	0xbe65e127	-0.2244917
255	0xbe4d66d0	-0.20058751

layer1.bias f4 [64]
0	0x3d8391e9	0.064243145
1	0xbe09d43c	-0.13459867
2	0xbd36f465	-0.044666667
3	0xbd0096a2	-0.031393655
4	0x3e2133ee	0.15742466
5	0xbd20134e	-0.03908091
6	0x3e1752d9	0.14777698
7	0xbde4ed64	-0.11178091
8	0x3e8e5d7e	0.27805704
9	0x3eb4b3ae	0.35293335
10	0xbd86139b	-0.06546708
11	0x3bb2b8e6	0.0054541705
12	0xbe5a6aa8	-0.21329749
13	0x3d203a74	0.039118245
14	0xbdc2dded	-0.09514985
15	0xbd7ba006	-0.061431907
16	0x3e9bfac4	0.30464756
17	0xbebbb71b	-0.36663136
18	0x3dda601a	0.10662861
19	0x3e8c2efa	0.2737959
20	0x3e2f6f2c	0.17132252
21	0xbbbe2380	-0.005802572
22	0x3e3008fb	0.17190926
23	0x3e0349fc	0.12821192
24	0x3bf4cd2e	0.0074707484
25	0x3df577ef	0.11985766
26	0xbd2ee2d7	-0.0426968
27	0xbe0472f7	-0.1293448
28	0x3e1d7b2e	0.1537902
29	0xbba16451	-0.0049252887
30	0xbb94aca4	-0.004537182
31	0x3e176d22	0.14787725
32	0xbdde0d66	-0.10842399
33	0xbd6e4752	-0.058173485
34	0xbd30d710	-0.04317385
35	0x3b968042	0.0045929262
36	0xbe88e6c1	-0.2673855
37	0xbdb7c54e	-0.0897318
38	0x3de24778	0.11048788
39	0xbcbd5b11	-0.023114713
40	0x3d0695d4	0.03285773
41	0x3e8c7798	0.27434993
42	0xbc8dadce	-0.01729479
43	0xbb1e7530	-0.0024178736
44	0x3d345836	0.044029437
45	0xbdd964a6	-0.106149
46	0xbddf601e	-0.10907005
47	0x3e95b26c	0.29237688
48	0xbe42fb02	-0.19041064
49	0x3b2ae1e4	0.0026074583
50	0x3e62320d	0.22089405
51	0xbdacc0d8	-0.084352195
52	0xbde1d89a	-0.110276416
53	0xbe1a8312	-0.15089062
54	0xbe116021	-0.14196827
55	0xbb0907f8	-0.002090929
56	0xbe01598a	-0.12631813
57	0xbd6bee9a	-0.057600595
58	0x3e10b13d	0.14130111
59	0x3e5951d7	0.21222626
60	0x3e19792f	0.14987634
61	0x3d93e94f	0.072222345
62	0x3e879dc6	0.2648756
63	0x3e163377	0.1466807

layer2.weight f4 [32, 64]
0	0x3dd073e3	0.10178354
1	0xbe06b63a	-0.13155451
2	0xbc54a3c5	-0.012978499
3	0x3c531411	0.012883202
4	0x3b99b4c0	0.0046907365
5	0xbbc23006	-0.005926135
6	0xbe2b9d42	-0.16759208
7	0x3daef2b2	0.08542384
8	0x3e56b5c8	0.20967782
9	0xbd8b5d97	-0.0680496
10	0xbe188628	-0.14894927
11	0xbe74a576	-0.23891243
12	0xbd0bbbc5	-0.034114618
13	0xbd151304	-0.036395088
14	0x3bdb63a3	0.006695227
15	0xbca500ea	-0.020142037
16	0xbdc2e6fb	-0.09516712
17	0xbe023656	-0.1271604
18	0x3d63c26e	0.055605344
19	0x3da0a9a8	0.07844859
20	0xbe1b6dc1	-0.15178587
21	0xbe9e2156	-0.30884808
22	0x3da198d9	0.078904815
23	0x3e74d95f	0.23911045
24	0xbe53dd17	-0.20689808
25	0xbda36041	-0.07977343
26	0x3df7a1b6	0.12091391
27	0x3cb192f2	0.021676514
28	0x3d62e6ae	0.055395775
29	0xbd8ef77a	-0.06980796
30	0x3bd976c2	0.0066364715
31	0x3d7b57f6	0.061363183
32	0x3e3a3408	0.18183911
33	0xbd31a479	-0.043369744
34	0x3c2e5c34	0.0106421
35	0xbdb09ede	-0.086240515
36	0xbc278336	-0.010224154
37	0xbca27fb0	-0.019836277
38	0xbb013cb6	-0.0019720024
39	0xbdd7f2b6	-0.1054434
40	0xbc5a1fe4	-0.013313267
41	0xbdeeee23	-0.11666515
42	0xbbb41636	-0.005495812
43	0xbd24a86c	-0.040199682
44	0x3d0a8020	0.033813596
45	0xbdefa51b	-0.11701413
46	0x3d78bd0c	0.060727164
47	0x3c86a700	0.016437054
48	0xbd884fc8	-0.06655842
49	0x3c80902a	0.015693743
50	0xbcc5e5fb	-0.024157515
51	0xbe3ba15b	-0.18323271
52	0xbd9813fe	-0.07425688
53	0xbe0e31de	-0.1388621
54	0x3d9fffd0	0.07812464
55	0xbd65054b	-0.05591325
56	0xbc9de39e	-0.019273575
57	0xbe5ac528	-0.21364272
58	0xbc6156ee	-0.013753636
59	0xbe408033	-0.18798904
60	0x3b3e1410	0.0029003657
61	0xbde16350	-0.110052705
62	0xbded862d	-0.115978576
63	0x3ddc539f	0.10758137
64	0x3d6bc689	0.057562385
65	0xbdb1213b	-0.08648916
66	0xbe4da5c2	-0.20082763
67	0x3b99081a	0.0046701552
68	0x3c0ec872	0.008714782
69	0xbe058305	-0.13038261
70	0xbd0d8cd2	-0.034558125
71	0x3db33d44	0.0875192
72	0x3d5118c6	0.051049016
73	0x3ccc3a42	0.024930123
74	0xbd1ad8c8	-0.037804395
75	0xbdcda2f3	-0.10040846
76	0xbca139ba	-0.019680846
77	0x3d3f2990	0.046670496
78	0x3e5a4a84	0.21317488
79	0xbd529bc9	-0.0514181
80	0x3d352632	0.04422588
81	0xbb0d4d5c	-0.0021561002
82	0x3dcd99da	0.100391105
83	0xbe1209eb	-0.14261596
84	0x3d62ac36	0.055340014
85	0x3c4d1dff	0.012519359
86	0xbc02701c	-0.007961299
87	0x3e199f77	0.15002237
88	0xbdd2ea07	-0.102985434
89	0x3d43d732	0.047812648
90	0x3dc3edd7	0.09566849
91	0x3e324fa0	0.17413187
92	0xbd7e69b8	-0.06211254
93	0xbddc5291	-0.10757936
94	0x3dccd016	0.10000627
95	0x3e03d6e8	0.12874949
96	0xbdbf89ce	-0.09352456
97	0xbd15738f	-0.03648716
98	0x3c83b8f2	0.0160794
99	0x3d526c33	0.051372718
100	0xbde731c0	-0.11288786
101	0x3e05daaa	0.13071695
102	0xbda77756	-0.081770584
103	0xbd343374	-0.043994382
104	0x3e82c654	0.25541937
105	0xbdcee904	-0.10103038
106	0x3d618891	0.05506188
107	0x3dd30c29	0.10305054
108	0xbd8f7bc9	-0.07006032
109	0x3e3936ff	0.18087386
110	0xbd9df436	-0.07712595
111	0xbd316264	-0.043306723
112	0xbd58aad0	-0.052897274
113	0xbdc0698e	-0.09395133
114	0x3d5bd3a6	0.05366864
115	0xbbc3dc04	-0.0059771556
116	0x3d8a952c	0.067667335
117	0x3b41cf6c	0.0029573096
118	0xbe9a6451	-0.3015466
119	0xbddceb44	-0.10787061
120	0xbd9fb407	-0.07798009
121	0x3e75a686	0.23989305
122	0x3dd93022	0.10604884
123	0x3d56d8d8	0.052452892
124	0x3b1488f8	0.0022664648
125	0x3db8a710	0.0901624
126	0x3e9db294	0.30800307
127	0x3bef7ea0	0.007308796
128	0xbe137ec2	-0.14403823
129	0xbe4bb9a1	-0.1989503
130	0x3d3adc7c	0.045620427
131	0x3d8b9f87	0.06817537
132	0x3e0e66ae	0.13906357
133	0x3e303983	0.17209439
134	0x3d3867aa	0.045020737
135	0x3e511890	0.20419526
136	0x3e4f026a	0.20215765
137	0x3e9026aa	0.28154498
138	0x3dc92f62	0.09823491
139	0x3e98dda8	0.2985661
140	0x3d47b480	0.048756123
141	0x3e31f31d	0.17377897
142	0x3dc34d54	0.095362335
143	0xbd93fdee	-0.072261676
144	0x3d9c8f98	0.07644576
145	0x3d898591	0.06714929
146	0x3e581e52	0.21105316
147	0x3d871235	0.065952696
148	0x3dc1fbbe	0.09471844
149	0x3e089d60	0.13341284
150	0x3c7b5425	0.015339886
151	0xbc418e64	-0.011813734
152	0x3d40d9da	0.04708276
153	0x3c5b81bb	0.013397629
154	0xbd443643	-0.04790331
155	0xbd03c013	-0.032165598
156	0x3e40a24a	0.18811908
157	0xbe519fef	-0.20471166
158	0x3d8c7d68	0.06859857
159	0x3db01d0a	0.08599289
160	0x3d348a68	0.044077307
161	0x3e5b4a1c	0.21414989
162	0xbca5e484	-0.020250566
163	0x3bc28665	0.0059364312
164	0x3e17eecd	0.14837189
165	0xbdafd2c0	-0.08585119
166	0x3cfc296a	0.030781467
167	0xbe32c64e	-0.1745846
168	0xbd14e7ac	-0.036353752
169	0xbc934b90	-0.017980367
170	0x3e30d5ca	0.17269054
171	0x3e093110	0.13397622
172	0x3e30b230	0.17255473
173	0x3e0abfd1	0.13549735
174	0x3c0bfa3e	0.008543549
175	0xbe40e2a7	-0.18836461
176	0xbe25e526	-0.16200694
177	0xbd241cc7	-0.040066507
178	0xbd4005e2	-0.04688061
179	0x3d86af91	0.065764554
180	0x3e14e375	0.14539893
181	0x3e7432e6	0.23847541
182	0xbdd44cea	-0.10366233
183	0x3cb1fee6	0.02172799
184	0x3d53bfea	0.051696695
185	0x3dc2b15b	0.09506484
186	0xbda6593e	-0.0812249
187	0x3d4a8924	0.049447194
188	0xbe477df6	-0.19481644
189	0xbdc4fc1f	-0.09618401
190	0x3c881087	0.016609443
191	0x3ce5e5b0	0.028063625
192	0x3d8bacfc	0.068201035
193	0x3c6185de	0.013764827
194	0x3d23bef6	0.039977036
195	0x3e1c5758	0.15267694
196	0xbd6471e8	-0.055772692
197	0x3d16f244	0.036852136
198	0xbc743880	-0.014906049
199	0x3d90b282	0.07065298
200	0x3d8c7fab	0.06860288
201	0xbe09db0f	-0.1346247
202	0xbdfa3c40	-0.12218523
203	0x3dd71fce	0.10504113
204	0xbda58c26	-0.08083372
205	0xbe3b9481	-0.18318368
206	0xbc930c77	-0.01795028
207	0xbd2279b3	-0.039666843
208	0xbe12f657	-0.14351784
209	0xbdb52264	-0.0884445
210	0x3e7e3522	0.24824956
211	0xbe0d5c9e	-0.13804862
212	0xbd5af787	-0.053458717
213	0x3d9fa566	0.07795219
214	0x3e64783c	0.22311491
215	0x3adcf198	0.0016856669
216	0x3d567a6b	0.05236284
217	0xbe4ab650	-0.19796109
218	0xbd0db425	-0.034595627
219	0x3da79382	0.08182432
220	0x3d81005d	0.062988974
221	0xbdedf14b	-0.116182886
222	0xbbd0cf88	-0.006372396
223	0xbc3faacd	-0.011698437
224	0x3daf8b1e	0.085714564
225	0x3b9791e6	0.0046255467
226	0xbd97151a	-0.07377072
227	0xbce16d88	-0.027518049
228	0xbdf877a0	-0.12132192
229	0x3dc2973c	0.09501502
230	0xbd5a165a	-0.053243972
231	0xbc1714a1	-0.009221227
232	0xbddef356	-0.108862564
233	0xbe3b8cb8	-0.18315399
234	0x3b9d7f4a	0.004806434
235	0x3ded4220	0.11584878
236	0x3d8ddf44	0.0692735
237	0x3bb7e4dd	0.0056119994
238	0x3d637ea5	0.0555407
239	0x3d6b5e7f	0.057463165
240	0xbe21fefa	-0.15819922
241	0xbd8d5271	-0.0690049
242	0x3d113f53	0.03546078
243	0x3d1822ab	0.037142437
244	0x3df901e8	0.12158567
245	0xbe3a967f	-0.18221472
246	0x3dd6bae2	0.10484864
247	0xbdc39e22	-0.09551646
248	0xbd081362	-0.03322161
249	0xbb78db2c	-0.0037972433
250	0x3cdaf0aa	0.026726086
251	0xbe0e33b7	-0.13886915
252	0x3c5b0c50	0.013369635
253	0x3d262c33	0.040569495
254	0xbcf69112	-0.030098472
255	0xbdbb37ce	-0.09141503

layer2.bias f4 [32]
0	0x3dd7e36a	0.10541423
1	0xbb4ba6c0	-0.0031074733
2	0x3e709a4e	0.23496363
3	0xbd065eb7	-0.03280517
4	0x3dd41352	0.103552476
5	0x3e8b63dc	0.27224624
6	0x3dc7866a	0.09742434
7	0x3e4c9d60	0.19981909
8	0xbb29c102	-0.0025902395
9	0x3e48c350	0.19605756
10	0x3df722e6	0.12067203
11	0xbe2116b5	-0.15731318
12	0x3e0996a2	0.13436368
13	0x3cd88ee8	0.02643533
14	0xbd808eb6	-0.0627722
15	0x3e62b435	0.22139056
16	0x3daee5d5	0.08539931
17	0x3e323ac0	0.17405224
18	0x3dc12608	0.09431082
19	0x3de395e5	0.111125745
20	0x3d22d29f	0.039751645
21	0x3e7a96f0	0.2447164
22	0xbe0f386e	-0.1398637
23	0x3e2d70c7	0.16937552
24	0x3e0881ec	0.13330811
25	0xbd457b80	-0.048213482
26	0xbcd39b18	-0.02583079
27	0x3de161af	0.1100496
28	0xbd603e33	-0.054746818
29	0x3e13a2ca	0.14417568
30	0x3dcd1075	0.100129046
31	0xbd80570b	-0.06266602

layer3.weight f4 [1, 32]
0	0x3d320f79	0.043471787
1	0xbe61db42	-0.22056296
2	0x3eee84aa	0.4658559
3	0xbc873f11	-0.016509565
4	0x3e1d972f	0.15389703
5	0x3ec88b36	0.3916871
6	0xbe007343	-0.12543969
7	0x3f1d9fe1	0.6157208
8	0xbed32321	-0.4123774
9	0x3eb83e60	0.35985088
10	0x3d568546	0.052373193
11	0xbaf89bf8	-0.0018967381
12	0x3e2447f4	0.16043073
13	0xbf13085e	-0.5743464
14	0xbe23993e	-0.15976426
15	0x3f05c3d8	0.5225196
16	0x3efd70a1	0.49499992
17	0xbe93e95a	-0.2888897
18	0x3ea5313b	0.32264122
19	0xbe0bba88	-0.13645375
20	0x3eaf31fb	0.3421782
21	0xbf0fba84	-0.56143975
22	0xbd99212d	-0.07477031
23	0xbec3490d	-0.3814167
24	0xbf0b20ed	-0.54347116
25	0xbde39e64	-0.11114195
26	0xbe8aa904	-0.27082074
27	0x3eda2906	0.42609423
28	0xbe3de168	-0.18543017
29	0x3e967a68	0.29390264
30	0xbe82994b	-0.25507578
31	0x3da811b8	0.082065046
