src/models/personalized_model_client_3.pth (torch, 19781 bytes, 5 tensors)

layer1.weight f4 [64, 30]
000000 b6 4a 02 3e 78 22 2c 3e fa fa 20 3d b3 cb 35 3e
       0.12723812 0.16810024 0.03930185 0.17753486
000010 73 e8 ad 3c 59 5d 00 3d b7 87 25 be 7e 7a d4 3d
       0.021229004 0.031339023 -0.16165052 0.10374926
000020 17 8b 53 3e 52 2c f4 bd b2 ba 4a 3e 95 22 3c be
       0.20658527 -0.11922516 0.19797781 -0.18372567
000030 4b 28 43 3e fa 79 71 3e fa 2f e8 bc 3c 9d 11 be
       0.1905834 0.23581687 -0.02834319 -0.14220136
000040 b1 b6 42 3e 79 a2 fe 3d e6 39 29 3e 01 3b 91 3c
       0.19015004 0.12433333 0.16525993 0.01772833
000050 39 bc 98 bc da 92 1f bd ab 5f 61 bd c9 e2 7d 3e
       -0.018644439 -0.038958408 -0.055022877 0.24793543
000060 59 22 20 3c 09 da 8a be 62 cc 33 bc 19 c6 89 bd
       0.009773814 -0.27119473 -0.010974022 -0.06727237
000070 8c 8c 70 3d 2a 16 a5 be 7f 89 8b 3e c9 1e 9d be
       0.058727786 -0.32243472 0.2725334 -0.3068755
000080 db 28 8f 3e 18 52 72 3e 35 b5 a1 3c 2e 49 9b 3d
       0.27960858 0.23664129 0.019739727 0.07582317
000090 92 c9 df 3c 45 f4 4b 3e 43 34 c4 bd 63 cd ac bd
       0.027317796 0.199174 -0.09580281 -0.08437612
0000a0 2b 81 cf 3d c7 11 89 bc 50 99 6b 3e 87 02 e7 3d
       0.10132059 -0.01673211 0.23007703 0.11279779
0000b0 31 ba 4a 3c 80 60 5e bd 1f 58 e2 bc 95 51 f1 3b
       0.012373493 -0.05429125 -0.02762991 0.0073644617
0000c0 f3 ac 98 3e 86 60 88 be e1 7b d1 bd 8e c8 06 bb
       0.2981945 -0.26636142 -0.10228706 -0.0020566317
0000d0 cd 81 7d bd 23 ab 57 3e 6c 9d 06 3e 1a 14 16 3e
       -0.061891366 0.21061377 0.13145989 0.14656106
0000e0 71 ce 50 3d a2 a1 bc 3c 8c d3 21 3e ed ba c8 bc
       0.050978128 0.023026291 0.15803355 -0.024503196
0000f0 1a b7 bc bd 41 74 09 be 72 e4 cb bc 69 d0 32 be
       -0.09214611 -0.13423254 -0.024889205 -0.17462315
000100 19 9f 64 3c 92 2e 37 bc 30 04 5b 3d 18 1c 38 bd
       0.013953947 -0.011180537 0.05347079 -0.044948667
000110 7e e0 d2 bd d6 df 70 bd a4 1d db 3d a9 7f d2 3d
       -0.10296725 -0.058807217 0.10699013 0.102782555
000120 91 1a 30 3c ab c7 50 be 27 93 68 3c a8 29 46 be
       0.010748521 -0.20388667 0.01419524 -0.19351828
000130 51 f5 84 bd 97 76 aa 3d 34 29 5f 3d bf 2e 1e 3e
       -0.06492103 0.083234005 0.054482654 0.1544752
000140 71 ef b8 bd 56 d5 b9 bd a9 08 d2 3d 5c d3 9c bd
       -0.09030045 -0.09073894 0.10255558 -0.07657501
000150 d3 c8 fa 3d 40 e2 e0 bc 55 85 0c bd 95 3e 4e bc
       0.122453354 -0.027451634 -0.034306843 -0.012588163
000160 09 98 2e be bb c2 d8 3c ee e7 ee bd 2b 76 8c be
       -0.17050184 0.026460042 -0.11665331 -0.27433905
000170 aa b6 fc 3d cc 18 51 3e e3 d4 a1 be 15 9a 3b be
       0.12339528 0.20419616 -0.31607732 -0.18320496
000180 ae ee be 3d c0 e0 06 bd 33 a5 22 be 3d 09 35 be
       0.09322868 -0.032929182 -0.15883331 -0.17679305
000190 5f 4e 43 be f4 87 af 3d 47 a8 f2 bd 11 dd 18 be
       -0.19072865 0.08570853 -0.118485026 -0.1492808
0001a0 b9 b7 18 3e 5b ed 22 be e8 d9 6a be 7f 90 93 3d
       0.14913835 -0.15910856 -0.22934687 0.07205295
0001b0 71 aa 20 be 06 32 00 be 1e 75 45 bc e0 e9 75 bc
       -0.15690018 -0.12519082 -0.012051849 -0.015009373
0001c0 c7 9a 0a bd ee cd c4 be d4 cd 81 be a9 5a f0 bd
       -0.033839013 -0.38438362 -0.25352347 -0.11736042
0001d0 ea a0 a3 3d 39 f3 cf bd af 24 31 be dd 57 cd bd
       0.07989676 -0.10153813 -0.1729915 -0.10026524
0001e0 27 0e 10 bc e0 77 1a be a1 c7 d3 bc 16 69 22 bd
       -0.008792437 -0.15084791 -0.025852026 -0.039651
0001f0 98 e5 f2 bd 3d 79 64 be 99 81 37 bd c3 ca 6b be
       -0.11860198 -0.22311874 -0.04480133 -0.23026566
000200 18 d6 32 3e 37 a1 ce 3c c9 44 95 3d e7 56 1a 3d
       0.17464483 0.025223358 0.0728851 0.037680533
000210 e7 d1 0c be 9f ba fb 3c 66 18 1a bd db af d8 bd
       -0.13751946 0.030728636 -0.037620924 -0.10580417
000220 5b b9 68 be 9a 5d f4 bb 02 0f 82 3d 35 0e 95 bd
       -0.22726957 -0.0074574472 0.06350519 -0.072781004
000230 0e 59 2d 3d a7 9f 55 be 97 6e 3c 3d 74 ca ec bd
       0.042321257 -0.20861684 0.046003904 -0.11562052
000240 49 fc e3 bd 6a 86 62 3e 91 07 87 bd c1 a0 11 3e
       -0.11132104 0.22121587 -0.0659324 0.14221479
000250 7c dc 09 3e 2d de 69 be 04 6f e8 bd dc 04 ba bd
       0.13463014 -0.2283866 -0.113492996 -0.09082958
000260 eb 50 91 be 98 61 93 be 49 66 7f 3e 5c 56 74 bd
       -0.28382048 -0.28785396 0.24941362 -0.05965267
000270 8a ab 30 3e b5 74 8b bd de d9 05 bc d9 3b ca bc
       0.17252937 -0.068093695 -0.008169619 -0.02468674
000280 9c d8 60 3d 9f fa ea 3d af d3 71 bd 42 d2 96 be
       0.054894075 0.114735834 -0.059039768 -0.2945729
000290 60 ea ec 3c 12 bb 21 be 49 1c 1d be e2 63 d5 3d
       0.028920352 -0.15794018 -0.15342821 0.10419442
0002a0 78 35 e8 bb 5f bd 36 bd 53 9e 6c be 59 0e 05 be
       -0.007086452 -0.044614192 -0.23107271 -0.12993754
0002b0 7d b7 ec 3d 49 e9 2a be c2 41 24 be f8 e5 3c be
       0.11558435 -0.16690554 -0.1604071 -0.18447101
0002c0 4c d2 ad be 3b 66 3d 3e b1 c1 c8 bc 66 41 79 be
       -0.33949506 0.18496029 -0.024506422 -0.24341354
0002d0 47 41 c9 bd 87 26 7a 3e 22 96 d2 3d 42 05 ae bd
       -0.09826904 0.2442876 0.10282542 -0.084970966
0002e0 ec 4f 2b bc a4 f4 20 3e 04 bf f9 3d 78 60 80 bc
       -0.010456067 0.15718323 0.121946365 -0.015671
0002f0 7a 8c cf bd 49 d7 c4 bd 79 45 a5 bd 50 eb 7b bc
       -0.10134216 -0.09611375 -0.080698915 -0.015375927
000300 c2 09 fb bb 28 78 38 3e e4 ca 1b 3e 60 2f 9b bd
       -0.0076610753 0.18014586 0.15214115 -0.075773954
000310 11 d9 5c be aa c5 e2 ba f4 77 36 3e 97 b7 88 3d
       -0.2156718 -0.001730134 0.17819196 0.06675642
000320 2f 0d 03 be c1 4e fe bd 0f 8f 34 3d f5 4e 88 3d
       -0.12797998 -0.12417365 0.044081744 0.06655685
000330 06 be 04 bd 77 f5 54 be 42 46 c7 3c bb e2 31 be
       -0.032407783 -0.20796762 0.024325494 -0.17371647
000340 e0 f9 92 bc fc a2 74 3e b9 ad 1a 3e f1 fe c0 3d
       -0.017941415 0.23890299 0.15105332 0.09423626
000350 2c ce 4a be c4 fb 0d be ba de b9 bc f6 23 69 3e
       -0.19805211 -0.13865572 -0.022689212 0.22767624
000360 51 db 3c 3d a3 a4 76 bb 7e d9 b8 bc d8 d7 13 bd
       0.046107594 -0.0037634752 -0.022564646 -0.036094517
000370 1b 7a 20 be 38 ac 36 3d a4 8a a3 3c 20 bd 41 bd
       -0.1567158 0.044597834 0.01996357 -0.047299504
000380 e1 5e ef bd a6 38 01 3e b7 1c 8c 3d eb 88 a5 3d
       -0.116880186 0.12619266 0.068414144 0.08082756
000390 40 5d 0d be bc 55 05 be df f6 99 bd e9 d7 6a 3e
       -0.13805103 -0.13020986 -0.0751779 0.22933926
0003a0 67 46 a0 3d f8 19 19 3e b1 02 0c bb 0b 13 50 3d
       0.07825928 0.14951313 -0.002136391 0.05079941
0003b0 0f de 00 3d 84 d9 83 be 31 2a a8 bd a0 9d 7d bd
       0.03146177 -0.2575189 -0.08211172 -0.0619179
0003c0 f6 b1 37 bd 54 c7 5a be b2 b4 4d be 75 96 d7 bd
       -0.04484745 -0.213651 -0.20088461 -0.10526744
0003d0 9b 19 71 be 57 bb 37 be 28 a0 f9 bd f4 62 e7 3d
       -0.23544924 -0.17942558 -0.121887505 0.11298171
0003e0 f7 e7 04 3d d8 ce ff 3d 9b 11 84 be f5 81 05 be
       0.03244778 0.12490624 -0.25794682 -0.13037856
0003f0 fe 53 41 3d 36 18 8e bb c7 92 61 be b5 49 49 be
       0.04719924 -0.0043363823 -0.22028647 -0.19657023

layer1.bias f4 [64]
000000 bf ac 8f 3d ae 9e 0a be 75 ac 3a bd 42 0a 0f bd
       0.070153706 -0.13537094 -0.045574624 -0.034921892
000010 f4 f5 1d 3e 1c 87 1f bd 98 26 1d 3e f1 bd e7 bd
       0.15425855 -0.03894721 0.15346754 -0.11315525
000020 d1 1f 8f 3e 46 6e b4 3e 14 6f 88 bd 2b bd 32 3c
       0.27953961 0.35240382 -0.066618115 0.010909359
000030 9d 53 55 be cc 16 21 3d 64 ff ca bd 70 d4 73 bd
       -0.20832677 0.03932838 -0.09911993 -0.059528768
000040 98 17 9f 3e 7b e4 be be 5e 2c db 3d 1d c0 8a 3e
       0.31072688 -0.37283692 0.10701822 0.27099696
000050 37 4c 35 3e c4 cf 2b bc 7a 44 36 3e 47 d9 fe 3d
       0.17704855 -0.010486547 0.17799559 0.12443786
000060 1d 48 15 3b a9 d7 00 3e f6 6b 31 bd fe a6 0a be
       0.0022778579 0.12582268 -0.04331585 -0.13540265
000070 fd 59 23 3e d5 f7 e6 3a a3 d2 f6 bb 6d 95 12 3e
       0.15952297 0.0017621467 -0.007532434 0.14314814
000080 0b e0 dc bd c5 d0 53 bd 03 85 12 bd 9d fa a9 39
       -0.1078492 -0.05171277 -0.03577138 0.00032420913
000090 43 e9 85 be 4c 06 b8 bd 29 34 e9 3d 32 a5 87 bc
       -0.26154527 -0.08985576 0.11386902 -0.016558263
0000a0 97 43 fd 3c f3 c1 8e 3e f9 73 4e bc ed c4 a5 bb
       0.030916018 0.27882347 -0.012600892 -0.005058876
0000b0 97 79 27 3d 14 ba e4 bd 5a a0 da bd 72 5e 94 3e
       0.04088744 -0.11168304 -0.10675116 0.28978306
0000c0 d0 81 3c be 59 8e 17 bb 2b 0e 60 3e 05 df 9e bd
       -0.18408895 -0.0023125617 0.21880405 -0.07757381
0000d0 a5 89 ed bd 87 54 14 be 3e 4c 15 be 65 5f dd bb
       -0.11598519 -0.1448537 -0.14579865 -0.0067557567
0000e0 34 f5 f9 bd 5b 6e 82 bd 23 c7 12 3e 9a 2b 52 3e
       -0.12204972 -0.06368705 0.14333777 0.20524445
0000f0 a2 3d 1f 3e 37 dc a0 3d f4 65 86 3e 70 fe 19 3e
       0.15550855 0.07854503 0.2624966 0.15038466

layer2.weight f4 [32, 64]
000000 14 30 d1 3d 24 d2 01 be 68 39 59 bc 24 ff 58 3c
       0.10214248 -0.12677819 -0.013258316 0.013244424
000010 e4 b7 33 3c 4d dc a5 bb 65 27 2e be bc 0f ae 3d
       0.010969136 -0.0050616623 -0.17007215 0.08499095
000020 e3 29 5d 3e 97 42 83 bd 28 1e 19 be 3c 0f 70 be
       0.2159801 -0.064091854 -0.1495291 -0.23443311
000030 ff 7d f5 bc 77 df 0d bd 8d 1e da 3b 1c 9e a0 bc
       -0.029967306 -0.03463694 0.006656474 -0.019606642
000040 f8 97 b4 bd 56 36 02 be 8f 02 66 3d 58 b5 a2 3d
       -0.08818048 -0.1271604 0.056154784 0.07944745
000050 00 bb 15 be ff 99 9a be 5e d4 a5 3d a6 48 72 3e
       -0.14622116 -0.30195615 0.080971465 0.23660526
000060 bc 20 53 be f9 f4 97 bd 10 e2 f8 3d f2 92 b1 3c
       -0.20617956 -0.07419772 0.12152493 0.021676514
000070 d9 03 7b 3d 2f a3 93 bd 5d 8a b6 3b 80 12 8a 3d
       0.061282966 -0.07208859 0.0055706934 0.0674181
000080 2b 70 3f 3e a9 f8 17 bd d7 7e 8d 3c e8 b7 b5 bd
       0.18695132 -0.037102375 0.017272396 -0.08872968
000090 36 83 27 bc f0 a3 9f bc e0 aa ba 37 1f 11 d8 bd
       -0.010224154 -0.019487351 2.2252498e-05 -0.105501406
0000a0 04 ce 66 bc 92 35 e5 bd 52 3d d2 bb 69 ae 24 bd
       -0.014087204 -0.11191858 -0.0064160014 -0.040205393
0000b0 c1 bf 0d 3d 63 80 e5 bd c5 95 7c 3d ea 31 7f 3c
       0.0346067 -0.112061284 0.06166627 0.015575865
0000c0 72 46 7e bd 53 a9 80 3c a2 a0 ce bc 40 78 3b be
       -0.0620789 0.01570574 -0.02522308 -0.1830759
0000d0 da 1e 98 bd dc e9 07 be 86 b5 a3 3d 70 fd 46 bd
       -0.074277595 -0.13272804 0.07993607 -0.04858154
0000e0 b2 7f a0 bc 2f a0 5a be 12 ba 6e bc 19 ba 3f be
       -0.01959214 -0.21350168 -0.01457073 -0.18723334
0000f0 1b 81 1f 3c e5 d3 d4 bd 13 f3 ed bd 1e 68 dd 3d
       0.009735371 -0.10391978 -0.11618628 0.108108744
000100 b8 fe 80 3d c1 17 b3 bd 0c 99 4c be 5c 01 2a 3c
       0.06298584 -0.08744765 -0.19980258 0.010376301
000110 c4 d7 27 3c 15 e3 06 be 8f f5 23 bd 30 b5 a8 3d
       0.010244314 -0.13172562 -0.040029105 0.08237684
000120 cd 27 3a 3d ac 89 96 3c b9 26 30 bd 4e c0 d6 bd
       0.045448113 0.018376194 -0.04300568 -0.10485898
000130 09 9f ca bc 34 b4 48 3d d0 72 57 3e 93 18 3c bd
       -0.024734037 0.04899998 0.21039891 -0.045921873
000140 41 de 18 3d 5d 29 4f 3b 98 e8 c4 3d 9e 42 12 be
       0.037321333 0.0031610348 0.09614676 -0.14283225
000150 45 a7 4b 3d 74 27 85 3c 75 b3 3f bc b8 b5 15 3e
       0.049720068 0.016254164 -0.011700501 0.14620101
000160 b7 40 de bd 27 1e 2a 3d e2 2a bf 3d e5 20 2d 3e
       -0.10852187 0.04153266 0.09334351 0.1690708
000170 7d 28 8c bd bb 51 cf bd 66 54 cb 3d cb b3 fc 3d
       -0.0684366 -0.10123011 0.09928207 0.1233898
000180 81 66 cd bd 9c e2 31 bd 0e 08 09 3c d6 81 3c 3d
       -0.10029317 -0.043429002 0.008363737 0.04602226
000190 60 19 f4 bd 09 89 07 3e 49 d1 b2 bd 0b 63 3e bd
       -0.119189024 0.13235869 -0.08731324 -0.046481173
0001a0 a4 44 83 3e dc 29 db bd 1d 6e 4b 3d 80 4d c8 3d
       0.25638306 -0.107013434 0.04966556 0.09780407
0001b0 69 f6 8c bd 65 b8 33 3e 63 6f 95 bd 45 dc 28 bd
       -0.068829365 0.1755081 -0.07296636 -0.04122569
0001c0 f7 79 72 bd 0a 84 cb bd 46 a8 55 3d da 04 2d bb
       -0.059198346 -0.09937294 0.05216243 -0.0026400597
0001d0 5b 1b 7e 3d cf c8 68 bb f7 61 99 be 48 b9 e4 bd
       0.062037807 -0.0035520082 -0.29957554 -0.11168152
0001e0 3e 7b aa bd ee 21 71 3e de e1 da 3d c8 47 5f 3d
       -0.08324288 0.235481 0.10687612 0.054511815
0001f0 2c 51 55 bb 09 da aa 3d e0 57 9b 3e e2 3f fd 3a
       -0.0032549603 0.08342368 0.3034048 0.0019321407
000200 66 fc 18 be 86 82 4a be b1 3a 37 3d 43 3e 84 3d
       -0.14940032 -0.19776353 0.044733707 0.06457188
000210 4a e6 10 3e 9b e0 31 3e f2 0d 4f 3d ee 6a 56 3e
       0.14150348 0.17370836 0.05055041 0.20939228
000220 7e 99 55 3e b5 9e 93 3e 3b 4a d4 3d 56 3b 9b 3e
       0.20859334 0.2883202 0.10365721 0.30318707
000230 94 08 5e 3d 61 9e 30 3e 5d 35 c9 3d 92 99 9e bd
       0.0542074 0.17247917 0.09824631 -0.07744135
000240 c5 fe aa 3d 67 41 7d 3d 6d a7 5c 3e 64 e2 88 3d
       0.08349375 0.06182995 0.21548243 0.066838056
000250 f2 92 cd 3d 27 b3 0a 3e 0f e6 a1 3c 2d 55 02 bc
       0.10037793 0.13544904 0.01976302 -0.007954878
000260 07 cf 57 3d ed 83 a1 3c d4 53 39 bd 9a d8 db bc
       0.05268767 0.019716227 -0.04524596 -0.026836682
000270 37 23 47 3e 56 11 58 be be fb 8d 3d 39 54 bb 3d
       0.19447027 -0.21100363 0.06932782 0.091469236
000280 23 da 50 3d 7c 9f 62 3e ed 86 4b bc 1a 5e 39 3c
       0.05098928 0.22131151 -0.0124223055 0.0113139395
000290 24 a6 1e 3e 06 04 b3 bd 56 7a 15 3d 15 0e 30 be
       0.15493065 -0.08741002 0.03649362 -0.17192872
0002a0 e8 bc 18 bd 4e 51 44 bc 22 65 36 3e 54 97 0e 3e
       -0.03728953 -0.011982275 0.17812017 0.13924915
0002b0 f3 2e 30 3e 19 41 10 3e 56 93 9b 3b 5e 01 43 be
       0.1720541 0.14087333 0.0047477884 -0.1904349
0002c0 18 4b 1f be 6e bb 0d bd f0 c8 39 bd d8 ff 7f 3d
       -0.1555599 -0.034602575 -0.045357645 0.06249985
0002d0 be a9 1a 3e 80 f3 7a 3e 34 6a d7 bd a3 df d1 3c
       0.15103814 0.2450695 -0.105183035 0.025619334
0002e0 46 5a 69 3d 31 c6 cb 3d 3d ea a7 bd 6f 99 43 3d
       0.056970857 0.099499114 -0.08198974 0.047753748
0002f0 ae d0 41 be 64 22 b7 bd 97 e7 ad 3c 2d 06 09 3d
       -0.18927261 -0.08942106 0.021228595 0.033453155
000300 9f d0 9a 3d 81 82 aa 3c 58 40 37 3d af 96 22 3e
       0.075593226 0.020814182 0.044739097 0.15877794
000310 96 bb 58 bd 89 4c 26 3d 81 fa 28 bc b5 a2 99 3d
       -0.05291327 0.040600333 -0.010313631 0.07501737
000320 b1 39 8d 3d d7 15 07 be 19 18 f1 bd 36 6d e4 3d
       0.068957694 -0.13191925 -0.117721744 0.11153643
000330 c1 93 9a bd 35 5a 35 be 54 1d 3d bc a2 dd 07 bd
       -0.07547713 -0.17710193 -0.011542637 -0.03317035
000340 1c d1 0d be 87 7b a9 bd 55 1d 81 3e 80 de 08 be
       -0.138493 -0.08275514 0.2521769 -0.13366127
000350 24 f4 5a bd c5 3a ae 3d b2 be 6a 3e 1c ea 09 3c
       -0.053455487 0.08507303 0.22924307 0.008417632
000360 3b 69 6d 3d 86 cf 50 be 52 bd 01 bd d9 96 af 3d
       0.057961684 -0.20391664 -0.03167469 0.08573694
000370 18 d6 8e 3d 0d 58 de bd 44 30 7a b9 cc dd 3b bc
       0.06974429 -0.10856638 -0.00023859838 -0.011466455
000380 7b 1b b5 3d 3c af f9 39 03 4f a0 bd b2 66 b0 bc
       0.08843132 0.0004762354 -0.0782757 -0.021533344
000390 b1 19 f9 bd 83 bb cb 3d 6d ff 45 bd ba 77 ab bb
       -0.12163103 0.099478744 -0.048339296 -0.0052327784
0003a0 1c bd ce bd af 4a 36 be e7 2e 24 3c ca 54 fb 3d
       -0.100946635 -0.17801927 0.010020948 0.122720316
0003b0 ff 2a 9a 3d 6e f4 cb 3b 1b c6 7a 3d 5d fe 83 3d
       0.07527732 0.0062242066 0.061224084 0.06445
0003c0 c6 5b 24 be 22 c4 7e bd 66 43 2e 3d 87 dc 31 3d
       -0.16050634 -0.062198766 0.042544745 0.043423202
0003d0 e6 c4 01 3e 85 e7 3d be c4 5e dd 3d 30 24 b7 bd
       0.12672767 -0.18545349 0.10809091 -0.08942449
0003e0 24 84 00 bd a9 3c cf 3a 69 b0 07 3d a3 e7 06 be
       -0.03137602 0.0015810925 0.033127222 -0.131743
0003f0 c1 8c a4 3c 15 22 3b 3d ce 7a b2 bc a3 15 b1 bd
       0.020086648 0.0456868 -0.021787073 -0.08646705

layer2.bias f4 [32]
000000 dd ba d8 3d 2b 31 e4 bb 96 a6 74 3e 2f b6 d6 bc
       0.10582516 -0.006963869 0.23891672 -0.026209919
000010 6a 88 da 3d 42 7b 8d 3e f9 06 ba 3d 18 a0 50 3e
       0.1067055 0.276331 0.09083361 0.20373571
000020 38 36 a6 bb 61 e8 4c 3e 46 f5 02 3e 33 07 24 be
       -0.0050723813 0.2001052 0.12788877 -0.16018371
000030 e1 ee 07 3e f4 29 bd 3c 6f 3c 8c bd 15 c7 66 3e
       0.13274719 0.023091294 -0.06847464 0.22536881
000040 d6 e9 b6 3d d3 d2 2e 3e 6c 97 b4 3d 03 46 dc 3d
       0.089313194 0.1707261 0.08817944 0.10755541
000050 40 59 0f 3d 2a ba 76 3e fc ea 13 be d5 b4 29 3e
       0.034997225 0.24094453 -0.14445108 0.16572888
000060 21 ca 04 3e 45 5f 4a bd 18 9b d3 bc f8 49 e9 3d
       0.12967731 -0.049407262 -0.02583079 0.113910615
000070 31 85 75 bd ac ce 10 3e a6 f0 c7 3d bf e6 70 bd
       -0.059941474 0.14141339 0.09762697 -0.058813807

layer3.weight f4 [1, 32]
000000 39 7f 45 3d e7 84 5d be fb 84 f1 3e 67 45 bb bc
       0.048217032 -0.2163273 0.4717177 -0.022860242
000010 6a ee 18 3e 6d 72 ca 3e 47 15 f4 bd f6 0c 1f 3f
       0.14934698 0.39540425 -0.11918121 0.6212915
000020 be b6 d2 be 2d 66 bb 3e ee f5 75 3d 08 87 26 3b
       -0.41155046 0.3660139 0.06004899 0.0025410075
000030 68 95 23 3e 0e 27 12 bf 18 eb 1d be f7 0a 07 3f
       0.15974963 -0.5709084 -0.15421712 0.52751106
000040 7e 3d 00 3f 0b 8f 91 be 18 bc a3 3e 2b 12 0e be
       0.5009383 -0.28429446 0.31979442 -0.13874118
000050 28 18 b0 3e 53 1f 0f bf f3 28 8f bd d7 07 c2 be
       0.3439343 -0.5590717 -0.06990232 -0.37896606
000060 37 55 0a bf 58 f1 e2 bd 04 a9 8a be b6 14 dd 3e
       -0.5403628 -0.11081189 -0.27082074 0.43179864
000070 4a f8 38 be 10 0d 9a 3e 0b 91 81 be 4e 1e ad 3d
       -0.18063465 0.3008809 -0.25305972 0.08453046
