src/models/personalized_model_client_1.pth (torch, 19781 bytes, 5 tensors)

layer1.weight f4 [64, 30]
00000000: 2c73 f73d 7a6d 273e edde 0b3d 33c3 2d3e
00000010: 8a25 df3c aa27 223d cb21 1fbe c493 db3d
00000020: bc3c 5e3e 7e3a e8bd 6673 403e 2e53 44be
00000030: f8de 373e cce8 6c3e 84d3 12bd d7c9 0ebe
00000040: 404b 3e3e 65c9 f93d 8ab4 313e 8990 a03c
00000050: b326 9dbc ee84 23bd 103b 59bd 05b1 7e3e
00000060: 5a70 4c3c 081e 85be 5ff4 b9bb 200c 88bd
00000070: 1820 913d c6d3 a1be dd56 8a3e d7ac a2be
00000080: e85e 8e3e 6ebe 6b3e 16db df3c 801e ad3d
00000090: 2f86 ea3c 204d 4f3e 1463 abbd f774 99bd
000000a0: 4fa1 b83d b051 cebc 28e5 5d3e 4651 cc3d
000000b0: 79b4 4a3c 2da3 52bd adfe 00bd 3878 363c
000000c0: 7eb8 9e3e 92b3 87be 5411 ddbd 9c3f 1e39
000000d0: 44b7 89bd 65d3 4d3e 47fa 0d3e d438 1c3e
000000e0: 5012 4d3d 76e6 ef3c 5c65 293e 9335 a0bc
000000f0: a15a a7bd 4a3d 0ebe 6d5f 73bc 0863 27be
00000100: 0431 4b3b 06b8 b1bc 9bd8 563d cc8a 49bd
00000110: e080 e0bd 74be 8cbd 24bf f03d 5334 cb3d
00000120: cc5d b73c 1395 4dbe 73a6 3f3c 5046 49be
00000130: 72a3 59bd aa5a b13d 9473 5f3d 3647 1a3e
00000140: e38e acbd cac7 c0bd 1319 db3d 8e0e 94bd
00000150: 4de8 e73d 0005 16bd 102f 06bd 415a 4abc
00000160: d1b1 33be 5414 793c f36d e6bd 7c8f 8abe
00000170: 1846 033e fbbe 533e b049 a3be 12fe 3bbe
00000180: dfe2 d23d fb60 c1bc 4ecc 21be c967 37be
00000190: f76d 38be 708d bf3d 1e64 ddbd aab4 14be
000001a0: 5b7e 203e 417c 1fbe 86fa 5bbe 76e2 a53d
000001b0: c910 20be 0a95 03be 36af 6dbc 86b5 83bc
000001c0: e765 1bbd cc64 c7be 1714 80be 08a2 f0bd
000001d0: 4f79 c13d d913 c4bd d387 37be 9217 d3bd
000001e0: e15d 81bb 211e 18be b602 a4bc 7198 06bd
000001f0: 71b6 f0bd 0811 64be 5e96 20bd 5053 65be
00000200: bcb8 2f3e 3f92 c63c 0104 a23d 17f1 1f3d
00000210: 1ae5 04be 3ca1 213d 9760 12bd 22a7 d2bd
00000220: 12b0 65be f690 1fbc 1c72 863d d955 95bd
00000230: 58ac 433d 130b 57be f279 573d 8aba dabd
00000240: 398f d7bd fb4f 683e 10b8 6cbd 11dd 163e
00000250: 56b5 063e 4f81 65be cad4 d4bd a93c b5bd
00000260: b6b1 8cbe 4195 8dbe 8b19 7a3e 31d6 82bd
00000270: 93c7 393e 2335 85bd 34de 67bc ab58 e6bc
00000280: 9755 8c3d 707b f93d 476c 37bd 0b66 93be
00000290: 6405 193d 334b 24be 5e6b 0fbe e9fa d93d
000002a0: b816 dcbb e5c6 46bd c92c 67be ec8f 05be
000002b0: cb7e f53d 381c 26be 8465 25be 1f50 41be
000002c0: da35 a9be 4f47 3c3e 3ef0 01bd 158a 7dbe
000002d0: 3d18 d3bd c24f 7b3e 7742 c43d 2b74 a2bd
000002e0: 7013 80bc 6683 123e 939d e33d c193 90bc
000002f0: 67c0 e7bd 231d e2bd 79c6 9abd aef4 e4bb
00000300: a1cd 2abb 0ff1 3c3e 603e 1d3e 2f13 b7bd
00000310: 619f 5fbe 8a21 46bc 0f19 333e a571 5d3d
00000320: a40d fcbd c754 ffbd dd4b 1a3d a77f 913d
00000330: bc8d 17bd 3657 62be 9195 9e3c 8fe8 3abe
00000340: fce3 e0bc b379 673e f135 1d3e b065 bb3d
00000350: 3f0a 4abe a90f 0bbe f7fd c4bc 12f9 623e
00000360: 2f13 1a3d 00b6 b138 4e8b 0fbd b209 21bd
00000370: 6edc 19be ebf4 403d 588d a93c 47ef 40bd
00000380: ee6f e0bd 0361 f43d 8d87 763d c2c9 b23d
00000390: bfab 10be 0d32 0cbe c8ff 96bd 9331 6c3e
000003a0: 0fbe 9f3d 8d58 193e b2dd 75ba 61bb 313d
000003b0: 65b0 9a3c 39b5 84be 5473 bfbd 615f 90bd
000003c0: d21e 21bd 6e7a 59be b401 47be 405a c8bd
000003d0: be64 71be 6a4e 37be c093 e9bd 3546 f63d
000003e0: a4fa e93c ead4 fc3d 3106 81be 886c 05be
000003f0: 5501 553d fd80 4d3b 2268 61be 64ea 48be
0.12082514 0.16350356 0.034148145 0.16968994 0.02723958 0.039588608 -0.15540235 0.107215434
0.21702856 -0.113392815 0.18794021 -0.19172356 0.1795615 0.2313568 -0.03584625 -0.13944183
0.18583393 0.12196616 0.17354026 0.01960017 -0.019183492 -0.039921694 -0.053034842 0.24872215
0.012477959 -0.25999475 -0.0056748833 -0.06642938 0.070861995 -0.31606883 0.27019396 -0.3177249
0.27806783 0.23021862 0.027326148 0.08453083 0.028628437 0.20244265 -0.08368507 -0.074930124
0.09015142 -0.025185436 0.21669447 0.09976439 0.01237213 -0.051425148 -0.031492878 0.011137061
0.3100013 -0.2650419 -0.10794321 0.0001509175 -0.06724408 0.20100172 0.13865004 0.15256053
0.050066292 0.029284697 0.16542572 -0.019556796 -0.08171583 -0.13890567 -0.014854294 -0.16346371
0.0031004557 -0.021694195 0.052452665 -0.049204633 -0.10962081 -0.068722636 0.11755207 0.099220894
0.022383593 -0.20076399 0.011697399 -0.19655728 -0.05313439 0.08659871 0.054553583 0.15066227
-0.08425691 -0.09413107 0.10698142 -0.072293386 0.11323605 -0.036625862 -0.032759726 -0.01235062
-0.175483 0.0152026005 -0.1125144 -0.27062595 0.12819707 0.20678322 -0.31892157 -0.18358639
0.102971785 -0.023605814 -0.15800592 -0.17910685 -0.18010698 0.09353149 -0.108101115 -0.14522043
0.15673201 -0.15574743 -0.21482286 0.080998346 -0.15631403 -0.12849823 -0.014507106 -0.016077768
-0.03793898 -0.3894409 -0.25015327 -0.11749655 0.09446966 -0.09574098 -0.17922907 -0.1030723
-0.003947959 -0.14855243 -0.020020824 -0.032860223 -0.11753548 -0.22272122 -0.0392059 -0.22395062
0.17160314 0.024239657 0.0791092 0.03904828 -0.1297802 0.039460406 -0.035736647 -0.10285784
-0.22430447 -0.009739151 0.065647334 -0.07291765 0.04777178 -0.21000318 0.05260653 -0.10680111
-0.105253644 0.2268676 -0.057792723 0.14732768 0.13155112 -0.22412609 -0.10392149 -0.08849461
-0.27479333 -0.27652934 0.24423806 -0.0638851 0.18142538 -0.06504276 -0.014152098 -0.028118452
0.068522625 0.12181747 -0.044780996 -0.2878879 0.037358657 -0.16044311 -0.14005801 0.106435604
-0.0067165755 -0.048529524 -0.22575678 -0.13043183 0.119870745 -0.16221702 -0.16152006 -0.1887822
-0.33048898 0.18386577 -0.031723253 -0.24759705 -0.103073575 0.24542144 0.0958299 -0.079323135
-0.015634269 0.14307937 0.11114039 -0.01764858 -0.11315995 -0.11040714 -0.07557387 -0.006987176
-0.0026062506 0.18451332 0.15355825 -0.08939206 -0.21838142 -0.012092957 0.17490028 0.054063458
-0.12307289 -0.12467342 0.037670005 0.07104426 -0.037000403 -0.22103581 0.019358428 -0.18252777
-0.027452461 0.22605018 0.15352608 0.09150255 -0.19730471 -0.13580193 -0.024046881 0.22165325
0.03761595 8.473918e-05 -0.03504496 -0.039315887 -0.15025494 0.047108572 0.02069728 -0.047103193
-0.10958849 0.11932566 0.060187865 0.087298885 -0.14128016 -0.13690968 -0.07373005 0.23065786
0.07799923 0.14975186 -0.00093790435 0.04339159 0.01888294 -0.25919512 -0.09348169 -0.07049442
-0.039336033 -0.2123811 -0.19434243 -0.09782839 -0.23573586 -0.17901006 -0.11405134 0.1202511
0.028561898 0.12345298 -0.25200036 -0.13029683 0.052003223 0.00313574 -0.2201238 -0.19620663

layer1.bias f4 [64]
00000000: 10d7 923d dfdb 01be 649f 44bd 1900 0ebd
00000010: de58 1a3e d856 34bd 1ea9 1a3e 2211 eabd
00000020: 960c 8c3e 5a44 b13e ebf8 6fbd 0707 753a
00000030: 08ba 61be 96ff 303d 7787 b3bd 55e4 69bd
00000040: f4bc 983e 2980 bebe 8543 da3d 447d 8a3e
00000050: 1b96 2d3e 03f8 24bc b7fc 333e 3bdf 093e
00000060: b4df 403c 7b0e e93d 394a 25bd 8a59 08be
00000070: e8e9 183e 98e8 bbba a8ee 96bb 2ea2 143e
00000080: d0c0 d8bd 1438 84bd dea5 46bd 84e1 353c
00000090: 1308 85be a10e bdbd 46ed da3d 01d2 8cbc
000000a0: 782c 233d 6843 8d3e 7682 8bbc 2d22 303b
000000b0: 5855 233d f2db d4bd 797c e7bd 0bab 973e
000000c0: 7464 3bbe e3b3 a53a fe28 673e 97c9 b5bd
000000d0: 63b2 d1bd af42 17be daa4 09be b9ef 953b
000000e0: 545c 04be a4ad 7abd 5130 143e 693f 553e
000000f0: e0f1 143e 27f7 863d 48b2 8a3e 9743 103e
0.07169926 -0.1268153 -0.04800357 -0.034668062 0.15072963 -0.044028133 0.15103576 -0.11429049
0.27353352 0.3462246 -0.058586996 0.00093470555 -0.22043622 0.043212496 -0.08766072 -0.05710252
0.2983166 -0.37207153 0.106574096 0.27048695 0.16951792 -0.010068896 0.17576872 0.13464062
0.011772085 0.11379715 -0.040353987 -0.13315406 0.14932978 -0.0014336286 -0.0046060868 0.14514992
-0.10583651 -0.064560086 -0.048498027 0.01110113 -0.25982723 -0.09231306 0.106897876 -0.017189981
0.03983733 0.2759049 -0.017029982 0.002687584 0.039876312 -0.10393514 -0.11303038 0.29622683
-0.18300039 0.0012642111 0.22574231 -0.08876341 -0.10239103 -0.14771532 -0.13441792 0.0045756963
-0.12925845 -0.061200753 0.14471556 0.2082497 0.14545393 0.06590109 0.27089143 0.14088283

layer2.weight f4 [32, 64]
00000000: f394 c63d 09dc 0bbe c5a3 54bc 1114 533c
00000010: c0b4 993b 0630 c2bb 429d 2bbe b2f2 ae3d
00000020: c8b5 563e 975d 8bbd 2886 18be 76a5 74be
00000030: c5bb 0bbd 0413 15bd e532 d93a ea00 a5bc
00000040: fbe6 c2bd 5636 02be 6ec2 633d a8a9 a03d
00000050: c16d 1bbe 5621 9ebe d998 a13d a6ab 6f3e
00000060: 17dd 53be 4160 a3bd b6a1 f73d f292 b13c
00000070: 9852 4e3d dfac 98bd 9c12 d13a f657 7b3d
00000080: 0834 3a3e 79a4 31bd 345c 2e3c 46e9 babd
00000090: 3683 27bc b07f a2bc b63c 01bb b6f2 d7bd
000000a0: 0870 96bc a144 f9bd f4c2 29bc a758 38bd
000000b0: 2080 0a3d 1ba5 efbd 0cbd 783d 21a3 3a3c
000000c0: c84f 88bd 509d 363c 7142 efbc 5ba1 3bbe
000000d0: 9766 a2bd de31 0ebe d0ff 9f3d 4b05 65bd
000000e0: 9ee3 9dbc 75d1 5fbe 5007 9abc 2090 45be
000000f0: 1014 3e3b 15e6 e8bd dddb f7bd 3905 d23d
00000100: 0dc3 853d 6212 a4bd c80c 4abe 8177 183c
00000110: 4f63 823c 2b2b 05be 3146 13bd 3640 b33d
00000120: 8e6f 6c3d ca32 023d f6c5 32bd 995a c4bd
00000130: 3f6e 6abc fb2d 563d ba50 623e be39 39bd
00000140: 17ca 473d f2fb 81bb 91f5 cd3d 8b67 12be
00000150: c45a 5d3d a79a 923c 8ea0 07bb 7132 213e
00000160: 9b37 c6bd 3b79 553d d7cb bf3d 3c46 2f3e
00000170: 22cc 73bd 0729 cebd d895 cd3d a23c 083e
00000180: 8799 bfbd c975 f8bc 46e2 a23c d08b 713d
00000190: d556 f3bd 3962 053e 21fc adbd a389 28bd
000001a0: 0007 873e 48ed bfbd d76d 5a3d 53d2 d73d
000001b0: 5be2 8dbd 6d4f 3e3e ea55 acbd 1256 1bbd
000001c0: 6eeb 4bbd b06b b4bd 8fe7 6e3d 2965 bcbb
000001d0: 2b20 963d e564 05ba 16fc 96be cd07 cdbd
000001e0: 2151 93bd b9f4 753e ae75 e93d 2e3c 703d
000001f0: a3f1 223b a814 c23d 079d a13e 98c6 683c
00000200: 9f08 1bbe a4ed 51be 26f3 2c3d b141 833d
00000210: 69a2 073e 0d74 2b3e 6450 3e3d e814 4f3e
00000220: f084 4a3e fe7c 8c3e c357 d63d 8ee2 963e
00000230: 4cde 313d 0d6c 2d3e d748 b33d f370 9cbd
00000240: 96e1 923d c92e 943d d111 583e 069a 7d3d
00000250: 9aa6 c43d 8b67 043e cf08 353c e6e2 98bc
00000260: a672 303d 2cf4 f83b 6dc5 3bbd 9270 ecbc
00000270: 67ed 3e3e 9e56 55be 3a82 8c3d fd32 a73d
00000280: 3796 343d 9118 553e 9989 d6bc 5b08 e43a
00000290: 268e 1f3e e1a0 b1bd 7a98 db3c 2f0e 39be
000002a0: 0e4b 34bd da26 cebc 6fe1 333e b316 063e
000002b0: 7290 2c3e 4ca6 053e 4355 8f3b 850d 47be
000002c0: c132 2abe b036 39bd f70a 54bd e8f3 7d3d
000002d0: 8520 0f3e 256a 783e 9be3 e1bd 5993 6d3c
000002e0: 4f09 3b3d be3b c13d ca90 b6bd 47ff 383d
000002f0: d1c2 4bbe 506b cbbd 6b4b 1e3c 22ac a83c
00000300: 2a27 953d 5d2a 973c 51c4 0f3d 74cc 1f3e
00000310: 1296 55bd 7172 0e3d dd31 96bc 851f 923d
00000320: 82aa 933d c67c 06be 2c2e 03be 4391 dd3d
00000330: 1579 9cbd 47c4 37be 3661 5cbc 628a 13bd
00000340: 13c1 18be 7a54 bcbd d197 7c3e 2a23 0abe
00000350: 3f6f 6dbd 4595 a63d 57fc 673e d731 fa3b
00000360: fd6a 643d 764e 4bbe 0a1c 22bd f6e5 9c3d
00000370: f361 683d 4be4 e6bd 0128 f8bb f947 05bc
00000380: f74b a53d 0201 033c d128 98bd 8305 dbbc
00000390: 86ae 02be 6e7e bb3d 10d4 4ebd da2c 83bb
000003a0: 6e2b d2bd 2acb 3cbe bcc0 ecb8 aa29 f03d
000003b0: 61d9 933d 89a0 763b 8177 713d 968c 783d
000003c0: dda9 1ebe 9487 99bd 0bbc 153d 83df 243d
000003d0: a086 023e 4477 40be e10a df3d 3345 bcbd
000003e0: 21e3 01bd 3bea a4bb bb8a 083d 377d 0abe
000003f0: 38c0 863c faa2 0e3d e294 cdbc 9875 bfbd
0.096963786 -0.13658156 -0.012978499 0.012883202 0.0046907365 -0.005926135 -0.16759208 0.08542384
0.20967782 -0.0680496 -0.14894927 -0.23891243 -0.034114618 -0.036395088 0.0016570954 -0.020142037
-0.09516712 -0.1271604 0.055605344 0.07844859 -0.15178587 -0.30884808 0.078904815 0.23405322
-0.20689808 -0.07977343 0.12091391 0.021676514 0.050371736 -0.074548475 0.0015950981 0.061363183
0.18183911 -0.043369744 0.0106421 -0.091265246 -0.010224154 -0.019836277 -0.0019720024 -0.1054434
-0.018363968 -0.12171293 -0.010361422 -0.04500642 0.033813596 -0.11701413 0.060727164 0.011391432
-0.06655842 0.011145905 -0.029206486 -0.18323271 -0.07929724 -0.1388621 0.07812464 -0.05591325
-0.019273575 -0.21857245 -0.018802315 -0.1929326 0.0029003657 -0.1137201 -0.121024825 0.102549024
0.065313436 -0.08011319 -0.19731438 0.009305836 0.015916495 -0.13004749 -0.03595561 0.08752482
0.057723574 0.031786717 -0.04364582 -0.09587593 -0.014308511 0.052289944 0.22101107 -0.045221083
0.048776712 -0.003966802 0.10056604 -0.14297311 0.05404164 0.01789601 -0.0020695063 0.15741898
-0.09678575 0.052117568 0.09365051 0.17116636 -0.059520848 -0.10066419 0.10038346 0.1330438
-0.09355455 -0.030329602 0.019883286 0.058971226 -0.11881796 0.1302575 -0.084953554 -0.041146886
0.26372528 -0.0937143 0.053327408 0.10538163 -0.069279395 0.18584986 -0.08414824 -0.03792388
-0.04978507 -0.08809602 0.0583263 -0.005749364 0.07330354 -0.0005088582 -0.294892 -0.100112535
-0.071932085 0.24019136 0.11399399 0.05865114 0.0024863265 0.09476596 0.31565115 0.014207505
-0.15140007 -0.20500809 0.042224072 0.06409014 0.13245548 0.16743489 0.046463385 0.20222819
0.19777274 0.2743911 0.10465958 0.29469723 0.04342489 0.1693575 0.087541275 -0.07638731
0.07171933 0.07235486 0.21100546 0.061914466 0.09602089 0.12930124 0.011049463 -0.018662881
0.043078087 0.007597467 -0.045842577 -0.028862271 0.1864525 -0.20833823 0.06860776 0.08164022
0.04408857 0.20810153 -0.026188659 0.001739751 0.15581569 -0.08673263 0.026806105 -0.18071817
-0.04401689 -0.02516501 0.17566465 0.13094597 0.16851977 0.13051718 0.0043741777 -0.19438751
-0.16620924 -0.04521817 -0.05176827 0.062000185 0.13977249 0.24259241 -0.110297404 0.014500462
0.045663174 0.09435223 -0.08914335 0.045165326 -0.19898535 -0.099325776 0.009661536 0.020589892
0.072828606 0.018452818 0.03509933 0.15605336 -0.05214507 0.03477711 -0.018334324 0.07134918
0.07210256 -0.13133535 -0.12810582 0.10818722 -0.07640282 -0.17945968 -0.013450911 -0.036020644
-0.14917402 -0.091958 0.24667288 -0.13489977 -0.05796742 0.0813394 0.22654854 0.007635336
0.055766094 -0.19854149 -0.03957752 0.07661049 0.056734037 -0.11274012 -0.007573128 -0.008134835
0.0807113 0.007995846 -0.0742966 -0.026736027 -0.12761888 0.09154974 -0.050495207 -0.0040031495
-0.1026219 -0.18436876 -0.000112892565 0.11726697 0.07219196 0.0037632308 0.05895186 0.06068095
-0.15494485 -0.074965626 0.036556285 0.04025222 0.12746668 -0.18795496 0.10890747 -0.09192886
-0.031710748 -0.0050328053 0.03333543 -0.13524328 0.016449079 0.034823395 -0.025095407 -0.09348601

layer2.bias f4 [32]
00000000: 5e90 cd3d 4556 333a 6491 6a3e 427a fcbc
00000010: 7caa df3d cf62 883e 6968 ba3d 63b4 463e
00000020: e808 5b3b 3cbd 423e f5e9 f03d 4b6c 1bbe
00000030: c0cb 033e bca7 043d 9b47 74bd 92ce 5c3e
00000040: 48da a23d 10ad 353e 8165 b83d 404b ec3d
00000050: 5af7 143d d853 803e 4ea2 0ebe f982 333e
00000060: 4bb0 0e3e 393d 25bd 189b d3bc 8b55 d53d
00000070: 4dc6 42bd af46 103e fd3b d03d bd62 8cbd
0.100373015 0.0006841163 0.22907025 -0.030820016 0.10921189 0.26637885 0.09101946 0.1940475
0.0033422057 0.190175 0.11763374 -0.15178029 0.12870693 0.032386526 -0.0596386 0.21563175
0.0795179 0.177418 0.09003735 0.1153779 0.036368705 0.25063968 -0.13929102 0.17530431
0.13934438 -0.04034159 -0.02583079 0.10416707 -0.047552396 0.14089464 0.10167692 -0.0685477

layer3.weight f4 [1, 32]
00000000: 9c3d 1f3d 738a 66be a3b7 eb3e 0701 a1bc
00000010: 8795 233e e1b7 c53e b9f7 f4bd ef1e 1c3f
00000020: 7a77 d6be b102 b53e fe49 4b3d b42d febb
00000030: a835 1e3e aefe 14bf 8e3b 2bbe 1fce 043f
00000040: 766c fa3e 89ec 96be b422 a33e 221d 10be
00000050: 6406 ad3e 2384 11bf b3a0 a2bd b8a0 c6be
00000060: f1da 0cbf 1eb3 f4bd 04a9 8abe f975 d73e
00000070: b020 46be 125b 943e 0de0 83be 5e31 a03d
0.038877115 -0.22513752 0.4603854 -0.01965381 0.15975009 0.3861685 -0.11961312 0.609847
-0.41888028 0.35353616 0.04963111 -0.007756913 0.15450156 -0.5820111 -0.16721937 0.51877016
0.48910874 -0.29477337 0.31862414 -0.14073613 0.33793938 -0.5684225 -0.07940807 -0.38794494
-0.5502158 -0.119482264 -0.27082074 0.42082193 -0.19348407 0.2897573 -0.25756875 0.07821916
