src/models/personalized_model_client_5.pth (torch, 19781 bytes, 5 tensors)

layer1.weight f4 [64, 30]
000000 4d 45 f1 3d 65 85 2e 3e dc 2f 00 3d 88 54 2b 3e
       0.11780796 0.17043073 0.031295642 0.16731465
000010 48 75 ec 3c a0 b9 31 3d 02 16 18 be c6 4f e8 3d
       0.028864518 0.043389916 -0.14852145 0.113433406
000020 a8 23 5a 3e 3b 0c e0 bd a0 ae 42 3e c1 a1 4a be
       0.21302664 -0.10939833 0.19011927 -0.19788267
000030 1f e7 39 3e 09 eb 6f 3e b9 0c a6 bc 4d 82 09 be
       0.18154572 0.23429503 -0.020269739 -0.13428612
000040 f8 57 48 3e fa 65 06 3e b6 54 37 3e 4b 74 c9 3c
       0.19564807 0.13124838 0.17903408 0.024591586
000050 06 30 d2 bc ca 58 2c bd 82 9a 74 bd 69 16 78 3e
       -0.025657665 -0.042076863 -0.059717663 0.24227299
000060 75 4e 9d 3c c5 76 86 be 01 44 ba bb 2d c9 79 bd
       0.01920245 -0.2626249 -0.005684376 -0.06098287
000070 47 10 88 3d d0 45 a1 be b4 a6 8a 3e 30 a1 9b be
       0.0664373 -0.31498575 0.2708031 -0.30396414
000080 e4 92 8e 3e 9b 2f 6e 3e 2e 41 90 3c 90 58 a4 3d
       0.27846444 0.23260348 0.017609205 0.080247045
000090 85 91 10 3d 30 67 55 3e 4a ff b5 bd 89 65 a4 bd
       0.03529503 0.20840144 -0.08886583 -0.08027179
0000a0 5f 8e ca 3d c4 bf d5 bc 77 80 65 3e 0d 21 dd 3d
       0.098904364 -0.026092418 0.22412287 0.107973196
0000b0 c6 68 ea 3c 9a 06 48 bd a7 e2 c1 bc 7c 08 99 3c
       0.028614413 -0.04883442 -0.023667647 0.018680803
0000c0 2e 69 a1 3e 2a b4 88 be c4 7d e6 bd 23 de 0f 3a
       0.31525558 -0.26699954 -0.11254457 0.0005488118
0000d0 a6 23 95 bd 13 eb 48 3e 6e cc 06 3e 23 75 11 3e
       -0.0728219 0.19620924 0.13163921 0.1420484
0000e0 e7 76 38 3d d9 ab f0 3c 2f 47 1f 3e 27 b9 ee bc
       0.04503527 0.029378818 0.15554498 -0.029141022
0000f0 dc 7d aa bd 2a 73 11 be 50 e1 87 bc f3 d6 29 be
       -0.08324787 -0.14204088 -0.01658693 -0.16585903
000100 cc 07 50 3c 47 e5 9a bc 4c 69 53 3d 91 13 4b bd
       0.012697171 -0.018908156 0.05161409 -0.049579207
000110 2e 11 e6 bd 76 f2 89 bd ca 58 dc 3d a2 ed d2 3d
       -0.112337455 -0.06735699 0.10759123 0.10299231
000120 6c fb 45 3c 62 28 59 be 61 31 81 3c 0b 37 51 be
       0.012083869 -0.21206811 0.015770616 -0.20431153
000130 a2 ae 79 bd cc 55 a3 3d 25 de 41 3d 66 04 12 3e
       -0.06095756 0.07975349 0.047330994 0.1425949
000140 bd 36 b3 bd 9d 9b c7 bd 86 0b d2 3d 82 7c 9e bd
       -0.08750675 -0.09746478 0.10256104 -0.07738592
000150 b3 e7 f7 3d fa 92 10 bd 4f 4d fe bc f6 f3 32 bc
       0.1210474 -0.035296418 -0.031042723 -0.010922423
000160 ce 67 33 be d8 85 90 3c 3f 16 d8 bd db d4 8f be
       -0.17520067 0.017641947 -0.10551118 -0.28092083
000170 8c 7d 09 3e 66 20 5c 3e d4 16 a7 be b5 e3 47 be
       0.13426799 0.21496734 -0.32634604 -0.19520457
000180 ca 82 b7 3d 26 23 12 bd e8 6a 24 be 47 d7 3f be
       0.08960493 -0.03567805 -0.16056406 -0.18734466
000190 c3 5c 3d be 64 03 c5 3d d5 e2 e2 bd d5 3f 1a be
       -0.18492417 0.09619787 -0.11078421 -0.15063412
0001a0 04 39 12 3e 68 ba 2b be 26 fe 6c be 93 ab 86 3d
       0.14279562 -0.16770327 -0.23143825 0.06575694
0001b0 be 48 2e be 9b 56 0a be bd 11 89 bb a4 6a 63 bc
       -0.17019936 -0.135096 -0.004183023 -0.013880406
0001c0 d6 98 e1 bc 80 74 c2 be c4 6e 84 be fd 27 fc bd
       -0.027538698 -0.37979507 -0.25865757 -0.12312315
0001d0 43 18 a4 3d b2 29 d5 bd 97 e4 35 be 46 f9 db bd
       0.0801244 -0.104083434 -0.17762981 -0.107409045
0001e0 4b 7d 65 3b 1c 37 1d be 9d e6 62 bc 0d 8b ee bc
       0.0035017307 -0.15353054 -0.013848928 -0.029119039
0001f0 a8 c2 fd bd db 96 6d be 5e 76 50 bd 77 95 6f be
       -0.12390643 -0.23202078 -0.050894134 -0.2339686
000200 43 ef 2c 3e 70 8c 73 3c 97 a5 86 3d f4 94 15 3d
       0.16888146 0.014865026 0.065745525 0.036519006
000210 bd 1a 13 be d6 17 bf 3c fd 10 4d bd 83 62 e6 bd
       -0.14365669 0.023326796 -0.05006503 -0.11249258
000220 01 11 72 be fd 5a aa bc 82 0b 5f 3d 13 69 ac bd
       -0.23639299 -0.02079534 0.054454334 -0.08418479
000230 fa 08 60 3d d4 27 58 be 40 a0 70 3d 8f de dc bd
       0.05469606 -0.21108943 0.058746576 -0.10784637
000240 4a 8a ed bd 8d ab 65 3e 7e b4 88 bd ef 39 14 3e
       -0.11598642 0.22428723 -0.06675051 0.14475225
000250 11 e7 05 3e 2e 37 6e be 4f fe d4 bd 4f 6a c4 bd
       0.13076426 -0.23263237 -0.10400068 -0.09590589
000260 75 03 8d be 48 0b 8e be 32 0a 75 3e 02 42 96 bd
       -0.275417 -0.27742982 0.2392967 -0.07336809
000270 38 da 2b 3e 11 17 9a bd 1b 05 44 bc 19 df 18 bd
       0.16782463 -0.07523931 -0.011964108 -0.037322138
000280 ce ac 7b 3d 9c 7f fe 3d d0 cd 4d bd 38 a1 97 be
       0.061444096 0.12426683 -0.050245106 -0.29615188
000290 51 85 be 3c 9a 86 2e be 7a b3 1e be 3e af c4 3d
       0.02325693 -0.17043534 -0.15498152 0.09603737
0002a0 5f cf ab bc 64 d8 5e bd 0d cf 65 be 45 72 f6 bd
       -0.020972906 -0.054405585 -0.22442265 -0.12033514
0002b0 2a f9 f7 3d 72 7f 27 be cc 76 27 be ac 01 44 be
       0.12108071 -0.1635721 -0.16353911 -0.19141263
0002c0 cf 1f af be 49 59 3d 3e cd f8 e1 bc 92 83 80 be
       -0.34203956 0.18491091 -0.027584458 -0.2510038
0002d0 fd 11 d9 bd 51 7f 6b 3e 58 74 be 3d ec 03 a9 bd
       -0.10599134 0.22997786 0.092995346 -0.08252701
0002e0 ad 93 27 bb 2c f1 1e 3e e6 cb dd 3d 27 54 a2 bc
       -0.00255702 0.15521687 0.10829906 -0.019815518
0002f0 2d 0c df bd 38 40 c8 bd e7 32 a2 bd 4d 27 aa bb
       -0.10890994 -0.09777874 -0.07919865 -0.0051926733
000300 22 d6 55 bb 6c 64 38 3e c4 aa 0e 3e 51 2b ac bd
       -0.0032628854 0.18007058 0.1393233 -0.084066994
000310 03 30 6a be 60 ec 6f bc 57 48 2c 3e bf 1f 86 3d
       -0.22869878 -0.014643759 0.1682447 0.06549024
000320 14 06 02 be 72 b2 0c be 9c c6 0a 3d ac b4 88 3d
       -0.12697631 -0.13739946 0.033880815 0.066750854
000330 f4 f3 03 bd 13 75 56 be 12 6e 93 3c 36 ac 3c be
       -0.032215074 -0.20943098 0.017996822 -0.18425068
000340 b1 ad 9a bc fb 7f 74 3e e4 2a 16 3e f4 5e b6 3d
       -0.01888165 0.23876946 0.14664799 0.089048296
000350 bc 0b 51 be 08 0f 14 be 58 96 81 bc d7 34 62 3e
       -0.20414633 -0.14458859 -0.01581876 0.2209047
000360 a9 32 10 3d 9b db 23 bb 29 56 16 bd e4 bc 14 bd
       0.035204563 -0.0025002721 -0.036703262 -0.036312953
000370 9a 7a 1b be 63 0d 5a 3d 70 a1 7d 3c 0d 35 3e bd
       -0.15183488 0.053235423 0.015480384 -0.046437312
000380 8c 38 ed bd 01 c4 e8 3d 26 7c 68 3d 4b 01 a4 3d
       -0.11583051 0.1136551 0.056759022 0.08008059
000390 dd da 15 be e2 da 0b be 5f 95 aa bd 86 80 68 3e
       -0.14634271 -0.13657716 -0.083292715 0.22705278
0003a0 f4 61 8a 3d b2 00 12 3e ab b3 20 3b 6e ae 3c 3d
       0.06756964 0.14258078 0.0024521153 0.046064787
0003b0 66 84 e1 3c 39 de 83 be e5 90 ba bd 7b e2 86 bd
       0.027528953 -0.2575548 -0.09109668 -0.065861665
0003c0 5e f6 fe bc 31 83 5e be a6 8e 3f be eb b2 be bd
       -0.031123336 -0.21729733 -0.1870676 -0.0931147
0003d0 bb e7 7c be 28 7a 3d be f9 74 fd bd ff ee e0 3d
       -0.24697773 -0.1850363 -0.123758264 0.10983085
0003e0 41 2c ca 3c e9 38 e8 3d 34 02 88 be aa f2 08 be
       0.024679305 0.1133898 -0.2656418 -0.13373819
0003f0 01 24 22 3d 8f f3 37 bc 50 fd 6d be 8b ba 43 be
       0.039585117 -0.0112275025 -0.23241162 -0.19114129

layer1.bias f4 [64]
000000 0e 5b 82 3d 99 ed 08 be 8a 89 14 bd a1 30 e8 bc
       0.063650236 -0.13371886 -0.03626398 -0.0283435
000010 78 16 29 3e 20 6d 0b bd 69 e4 16 3e e8 c1 ee bd
       0.16512477 -0.034039617 0.14735569 -0.116580784
000020 da dc 92 3e 47 00 b7 3e 51 85 90 bd b7 c4 5b 3c
       0.2868412 0.357424 -0.07056678 0.0134136
000030 39 49 52 be ca 52 23 3d 16 6f ca bd cb da 82 bd
       -0.20535745 0.039873876 -0.09884469 -0.06389388
000040 26 e5 9c 3e c4 69 bf be 4c 0e de 3d 00 9c 90 3e
       0.30643576 -0.3738538 0.10842571 0.2824402
000050 21 30 38 3e d3 1b 2b 3b 7e 48 28 3e 5e 09 00 3e
       0.1798711 0.0026109114 0.16433904 0.12503573
000060 91 9d b7 3b cc ac 03 3e d3 08 07 bd 05 48 01 be
       0.0056035 0.12858886 -0.0329674 -0.1262513
000070 25 30 1a 3e db cc 42 bc 26 c1 e3 bb 73 bf 1f 3e
       0.15057428 -0.011889662 -0.0069505153 0.15600376
000080 f2 0a e0 bd 87 59 49 bd 3d d8 0a bd 68 ae 3f bb
       -0.10939588 -0.049157646 -0.033897627 -0.0029248241
000090 ea 20 84 be 89 6e b0 bd 83 e8 f3 3d 89 3f d3 bc
       -0.2580636 -0.08614833 0.119095825 -0.025787132
0000a0 ad 2a 0f 3d 6e ae 87 3e 4e 87 a2 bc 9e f9 f1 bb
       0.03495281 0.26500267 -0.019839909 -0.007384493
0000b0 83 1c 49 3d c7 b4 e4 bd 07 4a cc bd 12 b5 94 3e
       0.049099457 -0.11167293 -0.09975057 0.29044396
0000c0 5e 74 38 be e2 80 3a 3a 85 da 5e 3e 76 08 a7 bd
       -0.1801314 0.0007114542 0.21763046 -0.08155911
0000d0 e3 bc f0 bd 11 c5 0f be 39 02 0c be 50 5e 26 bc
       -0.11754777 -0.14040019 -0.13672723 -0.010154322
0000e0 38 25 fb bd 3d ed 54 bd fd 15 15 3e 92 b2 5f 3e
       -0.12262958 -0.05198406 0.14559169 0.21845463
0000f0 75 9e 22 3e b4 7f a8 3d b5 d3 83 3e ec 4e 17 3e
       0.15880759 0.082274824 0.25747457 0.147762

layer2.weight f4 [32, 64]
000000 b2 cb c0 3d 74 8c 0e be d0 3a b2 bb 87 c8 fe 3b
       0.09413852 -0.13920766 -0.00543914 0.0077753696
000010 0f b8 45 3c ff 18 0b bc 5d e6 32 be ef 2e ac 3d
       0.012067809 -0.008489846 -0.17470689 0.084073894
000020 ac c5 5e 3e e4 9c 8b bd 67 73 1f be 67 83 6c be
       0.21755093 -0.06817034 -0.15571366 -0.23097001
000030 09 22 ee bc 07 13 f3 bc a3 63 db 3b bf 73 cf bc
       -0.029068964 -0.029672159 0.006695227 -0.025323747
000040 6b 8c c1 bd f7 1b 07 be 89 7d 48 3d b0 f6 b0 3d
       -0.09450611 -0.13194261 0.048947845 0.08640802
000050 c9 60 14 be 73 7f 9a be 3f 79 b1 3d 1f d7 70 3e
       -0.14490046 -0.3017536 0.08665704 0.23519562
000060 ab 19 58 be 61 ba 92 bd 23 f6 03 3e c9 5f 69 3c
       -0.21103542 -0.07164455 0.12886862 0.014244028
000070 85 73 47 3d 27 b9 98 bd d2 56 85 ba 9f 2e 8d 3d
       0.048694152 -0.0745719 -0.0010172969 0.06893658
000080 8e 89 36 3e ad 01 16 bd 1d 48 91 3c da 7e a6 bd
       0.1782591 -0.036622692 0.017734582 -0.08129664
000090 fb aa 9d bb 1f 72 cf bc 68 c9 bb 3b 2b 31 e5 bd
       -0.004811642 -0.025322972 0.0057307966 -0.11191019
0000a0 43 90 96 bc e2 a7 f9 bd d5 59 41 bc b7 02 0a bd
       -0.018379336 -0.12190224 -0.011801203 -0.033693995
0000b0 3e d2 e2 3c 33 20 e5 bd 09 26 78 3d bc 09 54 3c
       0.027688142 -0.11187782 0.06058315 0.012941774
0000c0 ee 30 74 bd 45 49 05 3c d2 b6 02 bd d8 4b 33 be
       -0.059616975 0.008135145 -0.031912632 -0.17509401
0000d0 b4 62 8d bd 07 9c 06 be d0 ff 9f 3d a2 21 4a bd
       -0.06903592 -0.13145457 0.07812464 -0.04934848
0000e0 30 ee 5d bc 12 60 52 be 32 44 ad bc 9e 44 3c be
       -0.013545558 -0.2054446 -0.021150682 -0.1838555
0000f0 97 e4 35 3c 7f f2 d5 bd a3 61 e1 bd d6 5d d5 3d
       0.011101863 -0.10446643 -0.11004951 0.104182884
000100 d8 b5 7d 3d 01 3f aa bd 67 68 56 be 58 09 13 39
       0.061940998 -0.08312798 -0.20938264 0.00014022493
000110 a2 2b c8 3a 73 5a 0b be 9a ca eb bc 63 10 a7 3d
       0.0015271793 -0.13608722 -0.028783131 0.081574224
000120 37 a4 30 3d 5a 83 8f 3c 32 32 09 bd a7 73 dd bd
       0.043125357 0.017518688 -0.033495136 -0.108130746
000130 87 9e c2 bc 60 b1 22 3d 54 9c 56 3e 7f 8e 60 bd
       -0.023757232 0.03971994 0.20958072 -0.054823395
000140 20 6d 16 3d 43 b5 6b 3b a5 57 c8 3d 2d 81 1a be
       0.036725163 0.0035966195 0.09782342 -0.15088339
000150 e5 65 3e 3d 13 75 ad 3b 7d 44 78 bc b5 f8 1a 3e
       0.046483893 0.0052934974 -0.015153048 0.15133937
000160 8f d8 de bd 24 f3 20 3d 51 fc b1 3d 2d ea 36 3e
       -0.10881149 0.039294377 0.08690704 0.17862768
000170 c6 45 85 bd a9 3d e8 bd 35 cd d0 3d 03 17 f8 3d
       -0.06507449 -0.11339886 0.1019539 0.12113764
000180 72 81 c9 bd ff 2e 37 bd b7 bc e8 3b 7f bc 42 3d
       -0.09839143 -0.044722553 0.0071025747 0.047543045
000190 de 4a f2 bd 89 06 0a 3e 14 19 b6 bd c4 cd 28 bd
       -0.11830686 0.13479055 -0.08891502 -0.04121186
0001a0 60 32 83 3e 03 16 d2 bd d2 04 5f 3d 60 f1 c7 3d
       0.2562437 -0.10258105 0.054447956 0.097628355
0001b0 00 13 93 bd d9 87 31 3e 6f ba a6 bd 69 d4 39 bd
       -0.07181358 0.17336978 -0.08141028 -0.045368586
0001c0 fb 98 72 bd 98 45 b9 bd 1a e9 74 3d a2 0f 48 bc
       -0.059227925 -0.09046477 0.059792615 -0.012210758
0001d0 23 47 75 3d 47 46 e5 bb 05 85 96 be 02 27 ec bd
       0.059882294 -0.006996903 -0.2939836 -0.11530878
0001e0 e8 76 ac bd 92 78 6f 3e 9b a2 eb 3d 15 0b 3a 3d
       -0.08421117 0.23385838 0.11505624 0.045420725
0001f0 4d 80 b4 bb d2 28 a6 3d 81 e7 9c 3e 4f 50 a1 3b
       -0.0055084587 0.081132546 0.30645373 0.0049229036
000200 a1 8f 17 be d8 ea 4c be 58 47 64 3d 8a b0 96 3d
       -0.14800884 -0.20011461 0.0557321 0.07357891
000210 79 62 16 3e d7 06 39 3e 53 83 23 3d 82 b0 58 3e
       0.14686002 0.18069015 0.039920162 0.21161082
000220 9e 0a 58 3e 47 8f 94 3e d0 ab cc 3d 9e e8 9d 3e
       0.210978 0.29015562 0.09993708 0.30841535
000230 b9 11 5a 3d 90 4f 3a 3e 92 e8 ca 3d 0f 89 8b bd
       0.053239558 0.18194413 0.099076405 -0.06813251
000240 ee 5b ad 3d 7c af 7b 3d 60 89 5d 3e a7 a2 9a 3d
       0.084648 0.06144665 0.21634436 0.07550555
000250 d2 99 d7 3d 32 b9 10 3e 4b 25 bf 3c a7 3e 4b bc
       0.10527386 0.14133146 0.023333212 -0.012405074
000260 86 40 5c 3d 0d f1 bc 3c c0 e5 1a bd 95 dc 00 bd
       0.05377247 0.02306416 -0.037816763 -0.031460363
000270 4d 6e 47 3e 47 35 4b be 92 91 89 3d 77 48 c1 3d
       0.1947567 -0.19844542 0.067172185 0.0943765
000280 3e 18 52 3d fb 4f 64 3e 53 b6 2a bc 51 5e 45 3c
       0.05129265 0.22296135 -0.010419446 0.012046413
000290 e0 71 20 3e 26 e0 b6 bd ec b1 1f 3d ab e7 34 be
       0.1566844 -0.08929472 0.03898804 -0.176665
0002a0 61 05 17 bd dd 55 6f bc 58 21 36 3e b6 ca 0f 3e
       -0.036870364 -0.014607874 0.17786157 0.14042172
0002b0 96 6b 35 3e 0c c5 12 3e 68 53 6b 3c 2f 0c 3e be
       0.17716822 0.1433298 0.014363147 -0.18559335
0002c0 53 ea 1c be 1d 42 27 bd 33 d8 56 bd 2b b2 94 3d
       -0.15323763 -0.040834535 -0.052452277 0.07260545
0002d0 2a 07 1f 3e 36 dd 7e 3e ee 30 df bd 5b 25 f3 3c
       0.15530077 0.24889073 -0.108980045 0.029680898
0002e0 ba f4 75 3d 80 e5 d1 3d 87 bc b6 bd 83 69 6a 3d
       0.060047843 0.10248852 -0.089226775 0.05722953
0002f0 d5 91 3d be 59 3f af bd 9a 44 98 3c c9 78 01 3d
       -0.18512662 -0.085570045 0.0185874 0.03160933
000300 8d 01 94 3d fa 41 72 3c 40 b1 0b 3d 70 8b 17 3e
       0.07226858 0.014786238 0.034104586 0.14799285
000310 60 9b 7f bd e5 94 10 3d b3 5f 14 bc 91 5b 83 3d
       -0.062404037 0.035298247 -0.00905602 0.06413949
000320 22 49 76 3d 9e c7 09 be 05 14 f1 bd b4 a9 c3 3d
       0.06012834 -0.13455054 -0.117713965 0.09553853
000330 26 8c a5 bd ca 3e 41 be 67 56 b5 bc 66 0e 32 bd
       -0.08083372 -0.18871608 -0.022135926 -0.043470763
000340 bd 78 16 be 39 0e aa bd a5 7b 7d 3e bb d7 15 be
       -0.14694495 -0.08303494 0.24754198 -0.14633076
000350 01 c0 70 bd 1f b1 91 3d 0e 0c 5d 3e 3b 2e b0 3b
       -0.05877686 0.07113861 0.2158663 0.005376605
000360 4f 64 40 3d 00 47 53 be f8 2e 27 bd ad d7 ae 3d
       0.04697066 -0.20632553 -0.040816277 0.08537231
000370 59 0d 87 3d 03 6a fa bd 7f 49 b8 bb c1 bd 9d bc
       0.06594343 -0.122272514 -0.005623996 -0.01925552
000380 b5 7f a5 3d e7 4a 56 bb 8f 8a a2 bd d6 b3 0a bd
       0.08080999 -0.0032698454 -0.07936584 -0.03386291
000390 b2 4a 01 be 0c 69 cc 3d 05 e7 76 bd c5 83 c6 bb
       -0.1262615 0.099809736 -0.06027891 -0.0060581886
0003a0 a4 86 da bd 17 fc 38 be cc 93 d5 3b f2 0e e1 3d
       -0.10670212 -0.18064915 0.006517863 0.10989179
0003b0 7b ed 8a 3d f5 f2 c1 ba 66 91 56 3d df 7e 5f 3d
       0.06783577 -0.0014797138 0.052384757 0.054564353
0003c0 00 e5 29 be 42 99 84 bd 49 03 26 3d c5 7d fa 3c
       -0.16591263 -0.06474544 0.040530477 0.03057755
0003d0 d6 ea ee 3d 27 10 42 be e2 ba d6 3d 7d 8e cb bd
       0.11665885 -0.18951474 0.10484864 -0.09939287
0003e0 04 7f 20 bd 6f 79 20 bc a4 60 03 3d 1e e8 14 be
       -0.03918363 -0.009794577 0.032074586 -0.1454167
0003f0 44 98 c5 3b e2 47 10 3d 54 4f 0b bd 06 e7 ab bd
       0.0060301144 0.035224803 -0.0340112 -0.083936736

layer2.bias f4 [32]
000000 65 c2 ce 3d 91 7f d1 bb 5e 9d 75 3e fb 78 08 bd
       0.100956716 -0.006393381 0.23985812 -0.0333185
000010 af ee df 3d 52 f0 8d 3e 0b 48 b6 3d 8a a0 51 3e
       0.10934197 0.27722412 0.0890046 0.20471397
000020 0f 71 d8 bb 99 e6 4d 3e c4 ba 04 3e 39 dc 21 be
       -0.0066052745 0.20107497 0.1296187 -0.15806665
000030 ac a3 0d 3e 7a 63 bb 3c e8 47 84 bd 16 bb 67 3e
       0.13831967 0.022874583 -0.064590275 0.22629961
000040 e5 d0 ba 3d 16 61 2e 3e 6f 60 c4 3d c0 88 da 3d
       0.09121875 0.17029223 0.09588706 0.10670614
000050 67 e7 45 3d 22 d7 75 3e 2b 86 16 be 11 b5 28 3e
       0.048316386 0.24007848 -0.14699619 0.16475321
000060 e1 eb 04 3e d6 c5 49 bd 18 9b d3 bc 3b 43 eb 3d
       0.12980606 -0.049260937 -0.02583079 0.114874326
000070 75 cc 47 bd 44 c7 1c 3e 2b ff cb 3d 0e e4 6c bd
       -0.04877897 0.15310389 0.09960779 -0.057834677

layer3.weight f4 [1, 32]
000000 39 04 26 3d 3e 55 64 be 80 52 f3 3e 89 94 62 bc
       0.04053137 -0.22298142 0.4752388 -0.013829359
000010 c6 a7 22 3e 99 f0 cc 3e cf f8 f1 bd 04 d3 1f 3f
       0.15884313 0.4002731 -0.118150346 0.6243136
000020 d2 a0 d0 be 19 5a bd 3e 36 17 81 3d 40 8d b1 3b
       -0.40747696 0.36982802 0.06303255 0.0054184496
000030 b2 04 2b 3e 39 b4 13 bf 47 72 26 be 3f 11 08 3f
       0.1670101 -0.5769687 -0.16254531 0.53151315
000040 78 0e 01 3f 33 f0 93 be b7 2b a7 3e 7f cd 04 be
       0.504127 -0.28894195 0.3265054 -0.12969016
000050 a2 af b3 3e 7f 69 0f bf 10 4d 8a bd 54 2a c2 be
       0.35094935 -0.5602035 -0.0675298 -0.3792292
000060 7e 03 0b bf 01 7e e7 bd 04 a9 8a be 56 c3 de 3e
       -0.54302204 -0.1130333 -0.27082074 0.43508404
000070 fe ac 3b be dd 6a 9b 3e ac 33 85 be b5 bd b8 3d
       -0.1832771 0.30354968 -0.26015985 0.09020559
