src/models/personalized_model_client_4.pth (torch, 19781 bytes, 5 tensors)

layer1.weight f4 [64, 30]
0.123485096 0.16075608 0.03653154 0.17732282 0.024213228 0.032624405 -0.15905792 0.10327933
0.20625056 -0.117728524 0.18988337 -0.1870996 0.1806584 0.23781401 -0.029419374 -0.14429589
0.1831495 0.11496328 0.1635078 0.016132256 -0.017097237 -0.041548003 -0.051459305 0.25590032
0.018803494 -0.2689742 -0.0059611616 -0.07449556 0.058112208 -0.32187843 0.2728347 -0.31208244
0.28001535 0.23757027 0.019555805 0.073683545 0.0204579 0.19385691 -0.09671837 -0.08352791
0.09106712 -0.024601784 0.21765746 0.10149716 0.017108094 -0.06111385 -0.039541643 0.002944535
0.29932547 -0.27158636 -0.10515116 -0.0077713383 -0.06545429 0.20952262 0.14368467 0.14717777
0.049796946 0.025658846 0.1606488 -0.021748161 -0.091840595 -0.12791955 -0.025077065 -0.17414787
0.010517061 -0.0159023 0.057825904 -0.042636503 -0.10383132 -0.06177643 0.10853962 0.11050435
0.014658124 -0.21019964 0.01690068 -0.19848835 -0.055781323 0.0896249 0.052478947 0.15086037
-0.09455919 -0.08968494 0.096545085 -0.08293663 0.12298166 -0.031171974 -0.028643623 -4.905823e-05
-0.16781475 0.024155585 -0.1153831 -0.2674641 0.124717675 0.20512708 -0.32007056 -0.18615232
0.09982593 -0.02465564 -0.15361501 -0.17921433 -0.18274224 0.09185834 -0.10975516 -0.14860913
0.15683842 -0.15558363 -0.21908104 0.08044182 -0.15578121 -0.12740998 -0.014915431 -0.007439282
-0.038744688 -0.3908632 -0.25922847 -0.12528467 0.08073933 -0.097019635 -0.1746327 -0.10677238
-0.0068184626 -0.14380066 -0.02403889 -0.041223828 -0.11470833 -0.21952729 -0.041983947 -0.22179046
0.17824982 0.02718013 0.07912411 0.037337314 -0.13046333 0.03266409 -0.039368946 -0.0992679
-0.2224245 -0.0052282116 0.06998861 -0.06948591 0.043110285 -0.20365988 0.047123183 -0.11588634
-0.114290886 0.2228558 -0.06801192 0.14903583 0.13816735 -0.22792758 -0.110401586 -0.08918442
-0.28145757 -0.28755876 0.2473175 -0.061091244 0.17432073 -0.06307507 -0.004524651 -0.028343126
0.060001347 0.11531701 -0.051737007 -0.3006913 0.028875869 -0.15968621 -0.14315158 0.11132588
-0.0058178217 -0.046899267 -0.23437239 -0.13101943 0.11061723 -0.17303245 -0.16545004 -0.18709727
-0.3368561 0.19724786 -0.02018759 -0.24553543 -0.106699385 0.23572445 0.09477138 -0.08444685
-0.0055631762 0.1529715 0.118849844 -0.011059018 -0.10408418 -0.09808999 -0.07213491 -0.0034304606
0.0019867308 0.18778968 0.15151973 -0.07890592 -0.21679857 0.00020862964 0.18081176 0.063597046
-0.12870166 -0.12979656 0.033272427 0.06545629 -0.041960865 -0.21337292 0.012367025 -0.18097202
-0.028702613 0.23023559 0.14341761 0.09804953 -0.2072652 -0.14778167 -0.018385319 0.22546954
0.036956783 0.0031169155 -0.0265885 -0.03870287 -0.15741803 0.055785943 0.013876396 -0.0547257
-0.110760346 0.11893746 0.06628823 0.092370704 -0.14487374 -0.13705625 -0.086602196 0.23819642
0.06570759 0.13734342 0.004654368 0.045279387 0.028245626 -0.25031376 -0.089292146 -0.06694089
-0.04214661 -0.21020113 -0.19818126 -0.10552819 -0.23334101 -0.17616867 -0.11562374 0.122091
0.035125583 0.12594463 -0.2518602 -0.13189943 0.053128775 -0.00097599864 -0.22082914 -0.19301546
00000000: c1e5 fc3d 3e9d 243e 19a2 153d 1d94 353e
00000010: d25a c63c 2ba1 053d 14e0 22be 1d84 d33d
00000020: 5933 533e a71b f1bd c970 423e 0a97 3fbe
00000030: 84fe 383e 8485 733e e600 f1bc 4dc2 13be
00000040: 8b8b 3b3e de71 eb3d 976e 273e cb27 843c
00000050: 810f 8cbc 3d2e 2abd fec6 52bd 5e05 833e
00000060: c909 9a3c fdb6 89be d955 c3bb 2191 98bd
00000070: 1107 6e3d 40cd a4be fdb0 8b3e 45c9 9fbe
00000080: 2c5e 8f3e 9f45 733e 7f33 a03c 66e7 963d
00000090: 5397 a73c 6d82 463e 4814 c6bd ae10 abbd
000000a0: 6681 ba3d ae89 c9bc 99e1 5e3e bedd cf3d
000000b0: 4626 8c3c 8452 7abd 6bf6 21bd 1af9 403b
000000c0: 3041 993e 5e0d 8bbe 7e59 d7bd b6a6 febb
000000d0: e60c 86bd 198d 563e 1322 133e c5b5 163e
000000e0: e2f7 4b3d 8032 d23c 1e81 243e 3329 b2bc
000000f0: ec16 bcbd 58fd 02be 6b6e cdbc d253 32be
00000100: c04f 2c3c 8a45 82bc dbda 6c3d 9da3 2ebd
00000110: 84a5 d4bd 4809 7dbd 054a de3d 1b50 e23d
00000120: a128 703c 933e 57be 4b73 8a3c 8840 4bbe
00000130: f57a 64bd 428d b73d 2af4 563d 247b 1a3e
00000140: 40a8 c1bd bdac b7bd 6eb9 c53d aeda a9bd
00000150: cfdd fb3d 5e5c ffbc 08a6 eabc e0c3 4db8
00000160: a1d7 2bbe efe1 c53c fa4d ecbd 0ef1 88be
00000170: fb6b ff3d d50c 523e 4ae0 a3be b79e 3ebe
00000180: 8a71 cc3d a0fa c9bc 414d 1dbe f683 37be
00000190: c820 3bbe 3a20 bc3d 50c7 e0bd fe2c 18be
000001a0: 409a 203e 5151 1fbe c856 60be aebe a43d
000001b0: 1c85 1fbe c377 02be da5f 74bc 38c5 f3bb
000001c0: c0b2 1ebd 391f c8be 98b9 84be a04a 00be
000001d0: a95a a53d 3bb2 c6bd ead2 32be 7aab dabd
000001e0: 696d dfbb 7b40 13be 35ed c4bc 51da 28bd
000001f0: 33ec eabd c3cb 60be 5cf7 2bbd 0a1d 63be
00000200: 1f87 363e dda8 de3c d20b a23d 03ef 183d
00000210: 2e98 05be c8ca 053d 5541 21bd f84c cbbd
00000220: 40c3 63be 6b51 abbb 3056 8f3d a14e 8ebd
00000230: 6994 303d 378c 50be 3d04 413d d155 edbd
00000240: 5711 eabd 5034 643e d549 8bbd d99c 183e
00000250: be7b 0d3e d965 69be 3a1a e2bd 52a6 b6bd
00000260: 351b 90be e73a 93be cc40 7d3e d03a 7abd
00000270: 2281 323e 812d 81bd 8643 94bb d82f e8bc
00000280: f9c3 753d 532b ec3d 2fea 53bd 36f4 99be
00000290: 168d ec3c c884 23be 5496 12be d3fe e33d
000002a0: 6da3 bebb 7219 40bd 51ff 6fbe f529 06be
000002b0: 498b e23d 6b2f 31be bc6b 29be 6d96 3fbe
000002c0: 6778 acbe 58fb 493e 7260 a5bc a46d 7bbe
000002d0: 3585 dabd c061 713e 7f17 c23d 78f2 acbd
000002e0: 4e4b b6bb 90a4 1c3e 8c67 f33d e230 35bc
000002f0: 162a d5bd 68e3 c8bd 78bb 93bd 94d1 60bb
00000300: d033 023b f04b 403e fd27 1b3e 6d99 a1bd
00000310: 7200 5ebe 98c3 5a39 b826 393e 2b3f 823d
00000320: 5eca 03be 64e9 04be ab48 083d f30d 863d
00000330: 28df 2bbd 6e7e 5abe 109f 4a3c bb50 39be
00000340: be21 ebbc e1c2 6b3e 11dc 123e 31ce c83d
00000350: 543d 54be 1454 17be cf9c 96bc 7de1 663e
00000360: ff5f 173d 2a45 4c3b 20d0 d9bc e786 1ebd
00000370: 3132 21be cd7f 643d d359 633c 0e28 60bd
00000380: 52d6 e2bd 7c95 f33d 20c2 873d da2c bd3d
00000390: c859 14be 7958 0cbe 7e5c b1bd c3e9 733e
000003a0: b391 863d c1a3 0c3e ab83 983b e176 393d
000003b0: 5f63 e73c 2029 80be cdde b6bd 4e18 89bd
000003c0: eca1 2cbd f73e 57be 07f0 4abe 2a1f d8bd
000003d0: f2f0 6ebe 8f65 34be 24cc ecbd d90a fa3d
000003e0: d8df 0f3d a1f7 003e d2f3 80be a510 07be
000003f0: 8f9d 593d 29da 7fba 0921 62be d8a5 45be

layer1.bias f4 [64]
0.06451688 -0.13316204 -0.04544518 -0.036230143 0.1556052 -0.03649509 0.15414041 -0.107544035
0.2773737 0.35783702 -0.05912172 0.0006297195 -0.21510005 0.042521443 -0.09427268 -0.06837703
0.30936053 -0.3723819 0.11059895 0.2692228 0.17812188 -0.007914948 0.17151886 0.13178685
0.012468948 0.1209257 -0.035419527 -0.13501178 0.15986097 -0.0024645363 -0.006105975 0.13979536
-0.101692684 -0.057849634 -0.03546714 0.0035316881 -0.26049265 -0.090536855 0.10581392 -0.024836991
0.03636369 0.27528337 -0.008784533 0.0036152573 0.04241684 -0.10337491 -0.11120594 0.29739293
-0.1904695 -0.00482692 0.22368951 -0.086840056 -0.11066836 -0.14402214 -0.1478979 -0.0011867002
-0.119620934 -0.05073568 0.13417344 0.20704706 0.15236825 0.079710856 0.26939446 0.14959168
00000000: 6d21 843d a15b 08be ba24 3abd 0f66 14bd
00000010: f856 1f3e e07b 15bd fcd6 1d3e 0c40 dcbd
00000020: ed03 8e3e 6a36 b73e 9e29 72bd c313 253a
00000030: 3043 5cbe f72a 2e3d 0912 c1bd 4209 8cbd
00000040: 8164 9e3e d7a8 bebe b481 e23d 92d7 893e
00000050: 9565 363e b3ad 01bc a4a2 2f3e 22f3 063e
00000060: 8f4a 4c3c e5a7 f73d 1114 11bd 8740 0abe
00000070: 98b2 233e 0f84 21bb a114 c8bb 8426 0f3e
00000080: 4144 d0bd bdf3 6cbd fe45 11bd e573 673b
00000090: 4b5f 85be 636b b9bd f8b4 d83d f276 cbbc
000000a0: 18f2 143d f1f1 8c3e 00ed 0fbc f4ed 6c3b
000000b0: 48bd 2d3d 3ab6 d3bd f1bf e3bd e343 983e
000000c0: 700a 43be 242b 9ebb dd0e 653e 33d9 b1bd
000000d0: 18a6 e2bd 8a7a 13be 8c72 17be 0d8b 9bba
000000e0: d2fb f4bd 37d0 4fbd c364 093e 2504 543e
000000f0: 6c06 1c3e 723f a33d 12ee 893e 902e 193e

layer2.weight f4 [32, 64]
0.107382864 -0.13356529 -0.007571861 0.019141056 0.010975319 0.00027488958 -0.16304414 0.09036306
0.21605146 -0.061662152 -0.14374307 -0.23249851 -0.029340636 -0.030276364 0.004805079 -0.013937733
-0.08730141 -0.12567875 0.061849006 0.08478727 -0.14429632 -0.30192733 0.08519769 0.23694643
-0.2011018 -0.07358818 0.12757452 0.026710384 0.061811015 -0.06566867 0.01085659 0.06766098
0.18796344 -0.037142374 0.017615283 -0.086049266 -0.00541115 -0.013790657 0.0043295817 -0.10060258
-0.00941566 -0.11653273 -0.0005063629 -0.035962667 0.040188726 -0.11116852 0.06695491 0.020476663
-0.06021204 0.0206954 -0.020164741 -0.17745379 -0.0744818 -0.13242075 0.082857385 -0.049886815
-0.018405868 -0.20930451 -0.0161936 -0.18141241 0.009721157 -0.10470365 -0.112069845 0.113408215
0.052963674 -0.08774405 -0.20725502 0.008430866 0.010483446 -0.13888666 -0.037154723 0.08818342
0.05394067 0.018484395 -0.04329954 -0.09506588 -0.019732881 0.051264197 0.21503943 -0.054494932
0.03781082 -0.0009311807 0.091742404 -0.13902761 0.049059805 0.017374571 -0.009113822 0.15521929
-0.09866288 0.041701138 0.08940375 0.16911526 -0.068627104 -0.10382808 0.09996695 0.13203819
-0.099312335 -0.034254342 0.008625319 0.052688275 -0.11036424 0.12339624 -0.083526134 -0.04597515
0.2586931 -0.1043149 0.048055667 0.10627357 -0.06615545 0.18456636 -0.072139606 -0.038656216
-0.051085114 -0.10206837 0.05713804 -0.0038060977 0.062974736 -0.0040623285 -0.3076923 -0.10464801
-0.07463772 0.2323169 0.10031536 0.056090035 0.0036639029 0.08366455 0.31231293 0.0059466707
-0.1371281 -0.19612145 0.05314832 0.06558893 0.13799906 0.18052785 0.048812278 0.2037955
0.19985169 0.28863254 0.103969485 0.29338783 0.048846398 0.16995135 0.09349513 -0.06585107
0.08307167 0.07382704 0.21963449 0.063357234 0.10169733 0.12871625 0.016981417 -0.017008044
0.043107163 0.01981172 -0.04055803 -0.026506934 0.19535008 -0.20665647 0.07038977 0.08315542
0.04997594 0.21217726 -0.012265761 0.005127931 0.15295875 -0.07772627 0.034124505 -0.1703365
-0.039169893 -0.013995699 0.18025458 0.1309843 0.16968647 0.13186659 0.0039842734 -0.19280954
-0.16254607 -0.031752788 -0.049223464 0.06383285 0.15100178 0.24635817 -0.09749982 0.01868542
0.04893352 0.10269919 -0.07536667 0.04620669 -0.1951744 -0.08931786 0.012346634 0.029861335
0.0680246 0.01890182 0.03794393 0.15552245 -0.057244938 0.031845436 -0.01848945 0.0721616
0.069113344 -0.14029658 -0.12904315 0.107276455 -0.084514804 -0.17973657 -0.014523418 -0.042663414
-0.14963 -0.0851298 0.24258485 -0.13721189 -0.059101 0.08065184 0.2247494 0.007747366
0.05471612 -0.19868045 -0.040793628 0.076178156 0.05580643 -0.11198443 -0.0017475237 -0.011952051
0.08572344 -0.00095783983 -0.081359304 -0.021958316 -0.12715258 0.09369217 -0.05679112 -0.010591704
-0.104622975 -0.18567725 -0.00079029903 0.11882403 0.07068651 0.006376085 0.05874689 0.061386827
-0.16369185 -0.073280945 0.04103832 0.040896628 0.11581945 -0.18851206 0.10486519 -0.09934726
-0.035797566 -0.006206486 0.03211887 -0.13504851 0.007430923 0.033972673 -0.026168812 -0.09773498
00000000: 8ceb db3d 57c5 08be 601d f8bb b4cd 9c3c
00000010: d3d1 333c 0e1f 9039 0bf5 26be 4510 b93d
00000020: 983c 5d3e 7491 7cbd 6231 13be 1714 6ebe
00000030: c65b f0bc 2306 f8bc ed73 9d3b 175b 64bc
00000040: 15cb b2bd eeb1 00be 6255 7d3d f3a4 ad3d
00000050: 6ac2 13be 3896 9abe 207c ae3d 16a2 723e
00000060: a1ed 4dbe 66b5 96bd e5a2 023e bccf da3c
00000070: 8c2d 7d3d 4c7d 86bd d7df 313c d791 8a3d
00000080: 7d79 403e 9a22 18bd ed4d 903c 993a b0bd
00000090: 0450 b1bb 35f2 61bc 2adf 8d3b ba08 cebd
000000a0: 2444 1abc b6a8 eebd 70bd 04ba 974d 13bd
000000b0: ef9c 243d 52ac e3bd a81f 893d adbe a73c
000000c0: e6a0 76bd 6689 a93c 8730 a5bc 72b6 35be
000000d0: ea89 98bd 4e99 07be 22b1 a93d 1e56 4cbd
000000e0: e7c7 96bc ec53 56be 71a8 84bc 2dc4 39be
000000f0: 7d45 1f3c de6e d6bd e084 e5bd 9142 e83d
00000100: 70f0 583d 27b3 b3bd a93a 54be 9d21 0a3c
00000110: c2c2 2b3c 4e38 0ebe 8d2f 18bd 8299 b43d
00000120: e4f0 5c3d 966c 973c dc5a 31bd e6b1 c2bd
00000130: daa6 a1bc 68fa 513d 4c33 5c3e 1436 5fbd
00000140: 85df 1a3d 7b1a 74ba 71e3 bb3d 415d 0ebe
00000150: eff2 483d 1e55 8e3c 2452 15bc cef1 1e3e
00000160: c40f cabd d0ce 2a3d 5019 b73d 8d2c 2d3e
00000170: 5e8c 8cbd d1a3 d4bd 79bb cc3d 0535 073e
00000180: 4464 cbbd 484e 0cbd 3651 0d3c a9cf 573d
00000190: a606 e2bd 2bb7 fc3d c00f abbd 7050 3cbd
000001a0: 6c73 843e 0da3 d5bd 05d6 443d f5a5 d93d
000001b0: 827c 87bd f7fe 3c3e eebd 93bd fb55 1ebd
000001c0: a03e 51bd 3909 d1bd 9409 6a3d b96f 79bb
000001d0: e6f8 803d 481d 85bb d889 9dbe b251 d6bd
000001e0: a9db 98bd 7be4 6d3e 2472 cd3d aabe 653d
000001f0: 171e 703b 5258 ab3d 7be7 9f3e 4adc c23b
00000200: 4f6b 0cbe 10d4 48be 0eb2 593d 7d53 863d
00000210: a04f 0d3e 4bdc 383e 62ef 473d c4af 503e
00000220: eca5 4c3e a5c7 933e f4ed d43d ee36 963e
00000230: 2913 483d ba07 2e3e 607a bf3d eddc 86bd
00000240: 7b21 aa3d a232 973d dde7 603e 70c1 813d
00000250: b146 d03d 31ce 033e 9d1c 8b3c 7454 8bbc
00000260: 2391 303d 304c a23c 2d20 26bd 1225 d9bc
00000270: da09 483e c19d 53be 8328 903d 644d aa3d
00000280: 92b3 4c3d ff44 593e 55f6 48bc 3408 a83b
00000290: 38a1 1c3e f32e 9fbd 23c6 0b3d b16c 2ebe
000002a0: 9c70 20bd 374e 65bc a894 383e c020 063e
000002b0: 4ac2 2d3e 0908 073e 828e 823b dd6f 45be
000002c0: 7a72 26be 360f 02bd 8b9e 49bd ccba 823d
000002d0: 36a0 1a3e 5145 7c3e fcad c7bd 2a12 993c
000002e0: 846e 483d f453 d23d d759 9abd 3a43 3d3d
000002f0: ccdb 47be 48ec b6bd 8949 4a3c c29f f43c
00000300: 7b50 8b3d fdd7 9a3c 186b 1b3d 4741 1f3e
00000310: ab79 6abd 5c70 023d 3077 97bc 76c9 933d
00000320: 4c8b 8d3d e8a9 0fbe e323 04be c2b3 db3d
00000330: 1916 adbd dd0c 38be a1f3 6dbc d5bf 2ebd
00000340: 9b38 19be 8858 aebd 2a68 783e 4681 0cbe
00000350: e413 72bd cb2c a53d b524 663e 9edd fd3b
00000360: 031e 603d e372 4bbe 3817 27bd 4b03 9c3d
00000370: 4895 643d 1858 e5bd 2a0d e5ba 89d2 43bc
00000380: c58f af3d 8b17 7bba b59f a6bd ede1 b3bc
00000390: 4934 02be aee1 bf3d ce9d 68bd d488 2dbc
000003a0: 9244 d6bd 2d22 3ebe 122c 4fba 035a f33d
000003b0: 17c4 903d 7aee d03b 94a0 703d c170 7b3d
000003c0: d69e 27be 5214 96bd cc17 283d 3983 273d
000003d0: bf32 ed3d 4e09 41be 90c3 d63d 9476 cbbd
000003e0: 78a0 12bd c75f cbbb 148f 033d 284a 0abe
000003f0: 1a7f f33b ee26 0b3d fa5f d6bc 4729 c8bd

layer2.bias f4 [32]
0.11166294 -0.0015102288 0.23424323 -0.030234585 0.111742735 0.2711946 0.09209251 0.19873577
0.001838288 0.19533592 0.12375553 -0.15213127 0.1321253 0.028813219 -0.06742996 0.22031882
0.084679514 0.17714047 0.08939184 0.11645749 0.03619304 0.24583317 -0.14519492 0.1706246
0.13641171 -0.048676357 -0.02583079 0.10895546 -0.055413965 0.13986735 0.0946999 -0.06379291
00000000: 8aaf e43d dff2 c5ba 75dd 6f3e 85ae f7bc
00000010: 60d9 e43d 05da 8a3e ff9a bc3d 6481 4b3e
00000020: b6f2 f03a 2406 483e 8a73 fd3d 4dc8 1bbe
00000030: db4b 073e b309 ec3c b818 8abd 429b 613e
00000040: 746c ad3d 5064 353e 1213 b73d 4481 ee3d
00000050: 273f 143d b1bb 7b3e faad 14be 37b8 2e3e
00000060: 83af 0b3e dc60 47bd 189b d3bc 0a24 df3d
00000070: c1f9 62bd 6339 0f3e 05f2 c13d dba5 82bd

layer3.weight f4 [1, 32]
0.049611356 -0.22332008 0.46542865 -0.01820804 0.1615703 0.39612597 -0.12061715 0.61902684
-0.41736326 0.36330667 0.0569512 -0.0050123944 0.1638057 -0.5777178 -0.16390292 0.525262
0.49922782 -0.29155234 0.31925464 -0.14090626 0.35012802 -0.5650068 -0.069496065 -0.3853673
-0.5483643 -0.11332554 -0.27082074 0.43021312 -0.18358006 0.29033417 -0.25316533 0.07905972
00000000: 4735 4b3d 05ae 64be aa4c ee3e 0729 95bc
00000010: af72 253e 06d1 ca3e 2006 f7bd 8b78 1e3f
00000020: a3b0 d5be 5503 ba3e a945 693d 033f a4bb
00000030: aebc 273e 50e5 13bf 2bd6 27be 9277 063f
00000040: ca9a ff3e 5946 95be 5875 a33e bb49 10be
00000050: fb43 b33e 49a4 10bf f453 8ebd dd4e c5be
00000060: 9a61 0cbf 3917 e8bd 04a9 8abe e544 dc3e
00000070: 69fc 3bbe aea6 943e e39e 81be 10ea a13d
