src/models/personalized_model_client_2.pth (torch, 19781 bytes, 5 tensors)

layer1.weight f4 [64, 30]
0	0x3df899f5	0.1213874
1	0x3e2ab399	0.16670074
2	0x3d0b7229	0.03404442
3	0x3e2ee31f	0.17078827
4	0x3cf8a422	0.030351702
5	0x3d01cd2c	0.031689808
6	0xbe24dfe2	-0.1610103
7	0x3dd1b095	0.102387585
8	0x3e521f61	0.20519783
9	0xbdf5ef1d	-0.12008498
10	0x3e4d4861	0.20047142
11	0xbe39ca04	-0.18143469
12	0x3e451e6d	0.19249888
13	0x3e7a2aa2	0.24430326
14	0xbce0f1ff	-0.027459143
15	0xbe0decbf	-0.13859843
16	0x3e3f0c1d	0.18656965
17	0x3e03b555	0.12862141
18	0x3e26e81a	0.16299477
19	0x3cbb632e	0.022874441
20	0xbcca20e3	-0.024673885
21	0xbd3ac7e7	-0.045600798
22	0xbd722019	-0.059112642
23	0x3e7944b7	0.24342619
24	0x3c09bd4b	0.008406947
25	0xbe8b92ff	-0.27260587
26	0xbc9cfefb	-0.019164553
27	0xbd9dfe83	-0.0771456
28	0x3d65a97e	0.056069843
29	0xbea63977	-0.32465717
30	0x3e87f907	0.2655718
31	0xbe9d58a1	-0.3073168
32	0x3e8bea0e	0.27327007
33	0x3e690308	0.22755063
34	0x3ccfb4b4	0.02535472
35	0x3dacf48a	0.084450796
36	0x3d0741af	0.033021625
37	0x3e549594	0.20760185
38	0xbdb26fff	-0.08712768
39	0xbd953a2a	-0.072864845
40	0x3dd1b787	0.10240083
41	0xbc8c3ae8	-0.017117932
42	0x3e6b1254	0.2295621
43	0x3de58c8f	0.1120845
44	0x3cca322d	0.024682129
45	0xbd44dc89	-0.04806188
46	0xbcd0fc1f	-0.025510846
47	0x3c8604f3	0.016359782
48	0x3e9f9c57	0.31173965
49	0xbe84c909	-0.25934628
50	0xbde4fd14	-0.11181083
51	0xbafe0fc0	-0.0019383356
52	0xbd8dd798	-0.06925887
53	0x3e5155df	0.20442913
54	0x3e0a0cea	0.13481489
55	0x3e1c76ca	0.1527969
56	0x3d38745e	0.04503285
57	0x3cda6e99	0.026664065
58	0x3e29485b	0.16531508
59	0xbc951a6c	-0.018201075
60	0xbdb06be7	-0.08614331
61	0xbe0f5f30	-0.14001155
62	0xbc95058b	-0.01819112
63	0xbe2a9da4	-0.16661698
64	0x3c682fbd	0.014171538
65	0xbc20b868	-0.009809591
66	0x3d82d326	0.063879296
67	0xbd13d34e	-0.036090188
68	0xbdc8d851	-0.09806884
69	0xbd6911d0	-0.056901753
70	0x3ddfde2d	0.109310485
71	0x3dc751be	0.09732388
72	0x3c72087b	0.01477253
73	0xbe557696	-0.20846018
74	0x3c3dda27	0.011587656
75	0xbe4b72c6	-0.19868001
76	0xbd6a7071	-0.05723614
77	0x3d9f03ab	0.077643715
78	0x3d6efeb0	0.058348358
79	0x3e17148f	0.14753936
80	0xbdae7a6d	-0.085194446
81	0xbdc41876	-0.09574978
82	0x3ddcef94	0.107878834
83	0xbd911e34	-0.07085839
84	0x3df71dbb	0.120662175
85	0xbccac8e2	-0.024753992
86	0xbca1e391	-0.019761832
87	0x38eab160	0.00011191028
88	0xbe28118c	-0.16412944
89	0x3cebd070	0.028785914
90	0xbdd48d03	-0.10378458
91	0xbe8df9f0	-0.2772975
92	0x3e0c30e7	0.1369053
93	0x3e5be379	0.21473493
94	0xbea7d1af	-0.32777163
95	0xbe3a0fb5	-0.18170054
96	0x3dd5adca	0.10433538
97	0xbcaa9151	-0.020821245
98	0xbe1cb222	-0.15302327
99	0xbe342e42	-0.17595771
100	0xbe425218	-0.18976629
101	0x3da36329	0.07977898
102	0xbdefa86e	-0.11702047
103	0xbe1d115f	-0.15338658
104	0x3e163ea7	0.14672337
105	0xbe232ec7	-0.15935813
106	0xbe62f729	-0.22164597
107	0x3d8c753b	0.068582974
108	0xbe1d1be8	-0.15342677
109	0xbe06d26a	-0.13166204
110	0xbaa29de1	-0.0012406671
111	0xbc55231f	-0.013008862
112	0xbcca8ed0	-0.024726301
113	0xbec1021d	-0.37696925
114	0xbe813818	-0.2523811
115	0xbdead0db	-0.11465617
116	0x3dc380c4	0.095460445
117	0xbdb648df	-0.08900618
118	0xbe2b1cf9	-0.16710271
119	0xbdc912ca	-0.09818037
120	0x3ba7e279	0.005123433
121	0xbe198cd2	-0.14995125
122	0xbc44ca44	-0.0120111145
123	0xbcdb256e	-0.026751246
124	0xbdfe0d90	-0.124049306
125	0xbe5ff7fa	-0.2187194
126	0xbd140c72	-0.03614468
127	0xbe628831	-0.22122265
128	0x3e362828	0.17788756
129	0x3ce17130	0.027519792
130	0x3d8db5a0	0.06919408
131	0x3ce0038c	0.027345441
132	0xbe10058c	-0.14064616
133	0x3cf0edab	0.029410204
134	0xbd370b39	-0.044688437
135	0xbdcad533	-0.09903946
136	0xbe623ec7	-0.2209426
137	0xbc833b62	-0.016019527
138	0x3d8f6e34	0.070034415
139	0xbd8d5ae4	-0.06902102
140	0x3d6d6347	0.057956006
141	0xbe5135aa	-0.20430627
142	0x3d7cea42	0.061746843
143	0xbdce1e2e	-0.1006435
144	0xbddc8c08	-0.10768896
145	0x3e6d9c96	0.23204264
146	0xbd59ce96	-0.05317553
147	0x3e1c9fb6	0.152953
148	0x3e13769c	0.14400715
149	0xbe613c0d	-0.21995564
150	0xbdd27904	-0.10276988
151	0xbdc3f040	-0.095673084
152	0xbe8c0b26	-0.27352256
153	0xbe8d1385	-0.27553955
154	0x3e7d982f	0.24765085
155	0xbd704fa5	-0.058669705
156	0x3e3ec1e0	0.18628645
157	0xbd7194e4	-0.058979884
158	0xbb67c9b2	-0.0035368023
159	0xbcbb581a	-0.022869159
160	0x3d6d0e9b	0.057875257
161	0x3de06291	0.109563
162	0xbd5e7833	-0.05431385
163	0xbe977624	-0.29582322
164	0x3d0ffd0b	0.03515343
165	0xbe2078c0	-0.15671062
166	0xbe0c91dd	-0.13727517
167	0x3dce8efc	0.10085866
168	0xbb16bd4a	-0.0023001009
169	0xbd31f4c8	-0.043446332
170	0xbe61be00	-0.22045135
171	0xbe07cd32	-0.1326187
172	0x3dff5f13	0.12469306
173	0xbe21954c	-0.15779608
174	0xbe234b55	-0.15946706
175	0xbe3a6dfe	-0.18206021
176	0xbea62ffc	-0.32458484
177	0x3e4aea79	0.19816007
178	0xbc959a57	-0.018262072
179	0xbe76e904	-0.24112326
180	0xbdc69118	-0.09695643
181	0x3e73d845	0.23812969
182	0x3dd14d19	0.10219783
183	0xbd954d98	-0.072901905
184	0xbc293436	-0.010327389
185	0x3e20b939	0.15695657
186	0x3dfe83eb	0.12427505
187	0xbb955754	-0.0045575295
188	0xbdcf206f	-0.10113608
189	0xbdc67025	-0.096893586
190	0xbda5e500	-0.08100319
191	0xbc804214	-0.015656509
192	0xbbdeed9c	-0.0068032276
193	0x3e398ee6	0.18120918
194	0x3e200678	0.15627468
195	0xbd98d694	-0.074628025
196	0xbe591e0f	-0.21202873
197	0xbc09365c	-0.008374777
198	0x3e3d2cb1	0.1847408
199	0x3d8c4aa7	0.06850176
200	0xbdec33d8	-0.11533326
201	0xbe025649	-0.12728228
202	0x3d3b9089	0.045792136
203	0x3da203f3	0.079109095
204	0xbd01c81b	-0.031684976
205	0xbe54448a	-0.2072927
206	0x3cd7c8b1	0.026340814
207	0xbe2df7b6	-0.16989025
208	0xbc87e5b7	-0.016589029
209	0x3e752c87	0.23942767
210	0x3e18b696	0.14913401
211	0x3dc00484	0.09375861
212	0xbe4d1378	-0.20026958
213	0xbe117022	-0.14202932
214	0xbcdb2c82	-0.026754621
215	0x3e68884d	0.22708245
216	0x3d36f303	0.044665348
217	0x3b9254cf	0.0044656764
218	0xbcc1c3ae	-0.023652878
219	0xbd0e8f12	-0.03480441
220	0xbe1ff696	-0.15621409
221	0x3d3ec693	0.046576094
222	0x3c75cf01	0.015002967
223	0xbd5ae78d	-0.05344348
224	0xbdeccc1a	-0.11562367
225	0x3e00ae62	0.12566522
226	0x3d8d0880	0.06886387
227	0x3dace188	0.08441454
228	0xbe0be06e	-0.13659832
229	0xbe06493e	-0.13113877
230	0xbda179bf	-0.07884549
231	0x3e7345cb	0.23757093
232	0x3d98d250	0.07461989
233	0x3e14ae29	0.14519562
234	0x3a86a231	0.0010271725
235	0x3d4c943b	0.04994605
236	0x3cfce276	0.030869704
237	0xbe7ed5ad	-0.24886198
238	0xbdac15d4	-0.08402601
239	0xbd8139bc	-0.0630984
240	0xbcf424a0	-0.02980262
241	0xbe54c866	-0.20779571
242	0xbe3e71ee	-0.18598148
243	0xbdba37b6	-0.09092657
244	0xbe79db2a	-0.2440001
245	0xbe365d7e	-0.17809102
246	0xbdea8732	-0.11451568
247	0x3df41ab2	0.11919154
248	0x3d0c381e	0.034233205
249	0x3df38628	0.11890823
250	0xbe85aca4	-0.26108277
251	0xbe0e8585	-0.13918121
252	0x3d368d70	0.04456848
253	0xbb5f0d1a	-0.0034034909
254	0xbe6897a9	-0.22714104
255	0xbe45e953	-0.19327287

layer1.bias f4 [64]
0	0x3d94bd4a	0.072626665
1	0xbe0e125c	-0.13874191
2	0xbd57c706	-0.052680038
3	0xbd106488	-0.035252124
4	0x3e1d5e5a	0.15368024
5	0xbd3f0a29	-0.04664055
6	0x3e10a64b	0.14125936
7	0xbde98e96	-0.11404149
8	0x3e8d68cc	0.27619016
9	0x3eb0ca7a	0.34529477
10	0xbd956e39	-0.07296414
11	0x3baecea6	0.005334693
12	0xbe54b905	-0.20773704
13	0x3d28736f	0.04112571
14	0xbdc7a43e	-0.097481236
15	0xbd8aba86	-0.06773858
16	0x3e9afeba	0.30272466
17	0xbebeb373	-0.37246284
18	0x3dca5d67	0.09881096
19	0x3e8a701a	0.27038652
20	0x3e2aa259	0.16663493
21	0xbc0f2d15	-0.008738776
22	0x3e378a38	0.1792382
23	0x3e0afd23	0.13573126
24	0x3b802aec	0.0039113667
25	0x3deff120	0.11715913
26	0xbd4e9dc8	-0.05044344
27	0xbe04a16f	-0.12952207
28	0x3e1e7a96	0.1547645
29	0xb9fd3bf0	-0.00048300577
30	0xbb6cd765	-0.0036139127
31	0x3e1af68e	0.15133116
32	0xbdef1e48	-0.116756976
33	0xbd85fba7	-0.065421395
34	0xbd3fb33f	-0.0468018
35	0x3c07c59b	0.008286859
36	0xbe8cc902	-0.27497107
37	0xbdc84952	-0.0977961
38	0x3dd96c78	0.10616392
39	0xbca05f86	-0.0195768
40	0x3cf62b5a	0.030049969
41	0x3e88b0d9	0.26697424
42	0xbc618ef7	-0.013766996
43	0xbc02fac7	-0.00799436
44	0x3d161810	0.03664404
45	0xbdddd9df	-0.10832571
46	0xbde5b863	-0.112168096
47	0x3e96cb29	0.29451874
48	0xbe413839	-0.18869103
49	0x3b0de73f	0.0021652726
50	0x3e63fcf3	0.22264461
51	0xbdb32c7a	-0.087487176
52	0xbde7584d	-0.11296139
53	0xbe227d2b	-0.1586806
54	0xbe0c54ad	-0.13704176
55	0x3b172f5f	0.0023069007
56	0xbe04ede5	-0.12981375
57	0xbd81d06b	-0.06338581
58	0x3e1420a1	0.14465572
59	0x3e5150c8	0.20440972
60	0x3e1991db	0.14997046
61	0x3d88537a	0.06656547
62	0x3e87c6d4	0.2651888
63	0x3e17bf41	0.14819051

layer2.weight f4 [32, 64]
0	0x3ddaca4c	0.10683116
1	0xbe08bf42	-0.13354209
2	0xbc04a811	-0.008096711
3	0x3ca29281	0.01984525
4	0x3c39d414	0.011342067
5	0x3a907306	0.0011020608
6	0xbe28dd5b	-0.1649069
7	0x3daef2b2	0.08542384
8	0x3e5da813	0.21646146
9	0xbd7a70f8	-0.06114289
10	0xbe188628	-0.14894927
11	0xbe6db131	-0.23212124
12	0xbd004f54	-0.031325653
13	0xbcf0ece8	-0.02940984
14	0x3b9bf60e	0.0047595566
15	0xbc8e87e8	-0.01739879
16	0xbdb565f9	-0.0885734
17	0xbe023656	-0.1271604
18	0x3d63c26e	0.055605344
19	0x3daecf56	0.0853564
20	0xbe16a8fa	-0.14712897
21	0xbe9a9275	-0.30189863
22	0x3daf18ab	0.08549627
23	0x3e788b96	0.24271998
24	0xbe5116e5	-0.2041889
25	0xbd999d33	-0.075006865
26	0x3e01c168	0.12671435
27	0x3cb192f2	0.021676514
28	0x3d73a703	0.059485447
29	0xbd894bfc	-0.06703946
30	0x3c2e96c2	0.010656061
31	0x3d8b8745	0.0681291
32	0x3e3a3408	0.18183911
33	0xbd17417c	-0.036927685
34	0x3c8f5b5b	0.017499616
35	0xbdb422c1	-0.08795691
36	0xbc278336	-0.010224154
37	0xbc673f76	-0.014114251
38	0x3b9b1b12	0.0047334516
39	0xbdcff161	-0.10153461
40	0xbc317603	-0.010831359
41	0xbde7120c	-0.11282739
42	0xbbb41636	-0.005495812
43	0xbd2c2502	-0.04202748
44	0x3d26e8f9	0.040749524
45	0xbde5b781	-0.11216641
46	0x3d8a79c8	0.06761509
47	0x3ca5bb98	0.020231053
48	0xbd78f38f	-0.06077915
49	0x3c80902a	0.015693743
50	0xbcd655e7	-0.026164008
51	0xbe35fb70	-0.17771697
52	0xbd9813fe	-0.07425688
53	0xbe09a796	-0.13442835
54	0x3da58297	0.08081549
55	0xbd4dda41	-0.05025697
56	0xbc9de39e	-0.019273575
57	0xbe5b0fbb	-0.2139272
58	0xbc80b7b3	-0.015712595
59	0xbe3963c4	-0.18104464
60	0x3c1f9b0d	0.009741557
61	0xbde06d9d	-0.10958407
62	0xbde83ad3	-0.11339345
63	0x3de9dde6	0.11419277
64	0x3d7ca6d6	0.061682545
65	0xbdaec30c	-0.08533296
66	0xbe4980c3	-0.19678025
67	0x3c047ad1	0.008085922
68	0x3bcf0610	0.0063178614
69	0xbe013ea4	-0.12621552
70	0xbd01e732	-0.031714626
71	0x3db394a7	0.087685876
72	0x3d540f9a	0.05177269
73	0x3cd9f8eb	0.026607951
74	0xbd1236b4	-0.0356967
75	0xbdd2b980	-0.102892876
76	0xbcc83184	-0.024437673
77	0x3d50803e	0.05090355
78	0x3e576943	0.21036248
79	0xbd536614	-0.05161102
80	0x3d1cb1e2	0.03825558
81	0x3b6a218d	0.0035725564
82	0x3dd2688c	0.10273847
83	0xbe0e2744	-0.13882166
84	0x3d6aa0a4	0.057282105
85	0x3c7567e6	0.014978385
86	0xbbee6295	-0.0072749355
87	0x3e1e6f36	0.15472111
88	0xbdd0164e	-0.10160504
89	0x3d47ba29	0.04876152
90	0x3dc8cd74	0.09804812
91	0x3e34208d	0.17590542
92	0xbd79a36b	-0.060946863
93	0xbdd4af4e	-0.10384999
94	0x3dd194bf	0.10233449
95	0x3e050106	0.12988672
96	0xbdb9cb2d	-0.09071956
97	0xbd034020	-0.032043576
98	0x3c870002	0.016479496
99	0x3d5ce7cb	0.053931993
100	0xbde2c599	-0.11072845
101	0x3e08addd	0.13347574
102	0xbda6fccb	-0.08153685
103	0xbd28fa88	-0.04125455
104	0x3e81e705	0.25371566
105	0xbdc967b7	-0.09834235
106	0x3d641d07	0.055691745
107	0x3dcd99d2	0.100391045
108	0xbd884dc3	-0.06655457
109	0x3e3a2703	0.18178944
110	0xbd98f69b	-0.07468911
111	0xbd28cad5	-0.04120906
112	0xbd542503	-0.05179311
113	0xbdbd4957	-0.09242504
114	0x3d644648	0.055731088
115	0xba536f56	-0.00080656016
116	0x3d8be287	0.06830316
117	0x3bb53348	0.005529795
118	0xbe9793be	-0.29604906
119	0xbdd31f87	-0.10308748
120	0xbda00f0f	-0.07815372
121	0x3e7530c8	0.2394439
122	0x3ddd8ec8	0.10818249
123	0x3d695f27	0.05697551
124	0x3b33ccb3	0.0027435243
125	0x3dad368e	0.08457671
126	0x3e9c9ade	0.30586904
127	0x3c144823	0.009050402
128	0xbe1b0e05	-0.15142067
129	0xbe47960b	-0.1949083
130	0x3d1c597a	0.03817127
131	0x3d789636	0.060690127
132	0x3e0c5d98	0.13707578
133	0x3e28d3b6	0.16487011
134	0x3d1a817e	0.03772115
135	0x3e50daf0	0.20396018
136	0x3e4c854b	0.19972722
137	0x3e8ce0cf	0.27515265
138	0x3db90577	0.090342455
139	0x3e9b26ce	0.30303043
140	0x3d5d8add	0.05408751
141	0x3e2af4b0	0.16694903
142	0x3dc9f41e	0.09861015
143	0xbd92305f	-0.07138132
144	0x3d90a411	0.07062543
145	0x3d849597	0.064738445
146	0x3e508a17	0.20365177
147	0x3d718453	0.058964085
148	0x3dbbbf2a	0.09167321
149	0x3e01d0af	0.12677263
150	0x3c084fc7	0.008319802
151	0xbc862b82	-0.016378168
152	0x3d37a0e2	0.044831164
153	0x3c1fa2c5	0.009743397
154	0xbd620a43	-0.055185568
155	0xbd0b1c49	-0.03396252
156	0x3e3fce04	0.18730932
157	0xbe5936b1	-0.2121227
158	0x3d801784	0.06254485
159	0x3dadc92a	0.084856346
160	0x3d16745b	0.03673206
161	0x3e5370a4	0.20648438
162	0xbcb9b18d	-0.02266767
163	0xba315e75	-0.00067660894
164	0x3e13dbd3	0.14439325
165	0xbdbe79be	-0.09300564
166	0x3ce5254a	0.027971882
167	0xbe3a6caf	-0.18205522
168	0xbd0cce15	-0.034376223
169	0xbca77af6	-0.020444375
170	0x3e2ffcaa	0.17186227
171	0x3e0c88cb	0.13724057
172	0x3e29f395	0.16596825
173	0x3e09d2a2	0.13459256
174	0x3aef4b7e	0.0018256751
175	0xbe452ac2	-0.19254592
176	0xbe265f15	-0.16247208
177	0xbd2a4889	-0.04157308
178	0xbd47fbe1	-0.048824195
179	0x3d6e1955	0.058129627
180	0x3e146f9b	0.14495699
181	0x3e6d1fe1	0.23156692
182	0xbdde4a40	-0.10854006
183	0x3c8c385f	0.017116724
184	0x3d58fc69	0.052975092
185	0x3dc42cfc	0.095788926
186	0xbdb76e5b	-0.089565955
187	0x3d2a78b0	0.041619003
188	0xbe475031	-0.19464184
189	0xbdd16ad7	-0.10225456
190	0x3c9c59a1	0.019085707
191	0x3cd97056	0.026542824
192	0x3d95980b	0.073043905
193	0x3c6df043	0.014522615
194	0x3d36845a	0.044559814
195	0x3e1f3482	0.15547374
196	0xbd62df81	-0.05538893
197	0x3d2a4959	0.041573856
198	0xbc2e58b2	-0.010641264
199	0x3d8e46c3	0.069470905
200	0x3d7830a5	0.060593266
201	0xbe065b72	-0.13120821
202	0xbdf09d6d	-0.117487766
203	0x3dc8752b	0.09787973
204	0xbda58c26	-0.08083372
205	0xbe375566	-0.1790367
206	0xbc3c3772	-0.011487829
207	0xbd42fb97	-0.047603216
208	0xbe0e3c22	-0.13890126
209	0xbdb5455b	-0.08851119
210	0x3e811bb9	0.25216463
211	0xbe0bd7e6	-0.13656577
212	0xbd794118	-0.060853094
213	0x3da630e4	0.08114794
214	0x3e68b72f	0.22726129
215	0xbaf00274	-0.0018311278
216	0x3d5edcb0	0.054409683
217	0xbe4bde69	-0.19909061
218	0xbcf91ffe	-0.030410763
219	0x3d9bedc0	0.076137066
220	0x3d673f09	0.0564566
221	0xbde40c9a	-0.11135216
222	0xbad319b2	-0.001610568
223	0xbc9aa5e3	-0.01887793
224	0x3db8cbdd	0.09023259
225	0x3c17831e	0.009247569
226	0xbda52224	-0.080631524
227	0xbcc11636	-0.023570161
228	0xbe03d86d	-0.12875529
229	0x3dca05a0	0.09864354
230	0xbd59b782	-0.053153522
231	0xbb94b1e0	-0.004537806
232	0xbdd277c7	-0.10276752
233	0xbe4265ce	-0.18984148
234	0x3bbdd328	0.005792994
235	0x3de1bc30	0.11022222
236	0x3d915aae	0.07097374
237	0xb88a6fc0	-6.601168e-05
238	0x3d66a414	0.05630882
239	0x3d79e2ae	0.061007194
240	0xbe27d0b0	-0.16388202
241	0xbd9a938e	-0.07547675
242	0x3d07c278	0.033144444
243	0x3d2b3402	0.041797645
244	0x3df4896c	0.11940274
245	0xbe3aa5ea	-0.18227354
246	0x3de1eaeb	0.11031135
247	0xbdca64c7	-0.09882503
248	0xbd2660a2	-0.0406195
249	0xbc386d6a	-0.011256555
250	0x3d01e803	0.031715404
251	0xbe097c4c	-0.13426322
252	0x3bc654bc	0.0060525816
253	0x3d3411a5	0.04396214
254	0xbd015d4b	-0.03158311
255	0xbdbffd2d	-0.09374461

layer2.bias f4 [32]
0	0x3de5dddc	0.11223957
1	0xba8b2bc3	-0.00106179
2	0x3e6c4c23	0.23075919
3	0xbd014562	-0.03156031
4	0x3de192fc	0.11014363
5	0x3e8947a6	0.26812476
6	0x3dd3fb75	0.10350696
7	0x3e48504a	0.19561878
8	0x3a7f6130	0.000974196
9	0x3e4566fd	0.19277568
10	0x3def8aef	0.11696421
11	0xbe1ed55b	-0.15511076
12	0x3e075f57	0.13219963
13	0x3ce6ab64	0.028157897
14	0xbd848e0c	-0.06472406
15	0x3e5f1f8e	0.21789381
16	0x3da6482e	0.08119236
17	0x3e343a19	0.17600287
18	0x3dbaec79	0.09127135
19	0x3df2e342	0.11859752
20	0x3d10d876	0.035362683
21	0x3e7ee931	0.24893643
22	0xbe084e3e	-0.13311097
23	0x3e2ef3ba	0.17085162
24	0x3e0bf1bf	0.13666438
25	0xbd328b63	-0.04358996
26	0xbcd39b18	-0.02583079
27	0x3dd8c278	0.10583967
28	0xbd6f909d	-0.058487523
29	0x3e100d92	0.14067677
30	0x3dca5726	0.098799035
31	0xbd8793b9	-0.06619973

layer3.weight f4 [1, 32]
0	0x3d4d1e7f	0.05007791
1	0xbe62297f	-0.22086142
2	0x3eec37cc	0.4613632
3	0xbc970965	-0.018437097
4	0x3e23be82	0.15990642
5	0x3ec4f042	0.38464552
6	0xbe077134	-0.13226777
7	0x3f1bc87c	0.6085279
8	0xbed4bbd0	-0.4154954
9	0x3eb6a0e1	0.35669616
10	0x3d49beae	0.049254112
11	0xbbc0638f	-0.0058712433
12	0x3e208862	0.15677026
13	0xbf13d2cd	-0.5774353
14	0xbe26080b	-0.16214006
15	0x3f04aea3	0.51828974
16	0x3ef9d334	0.48793948
17	0xbe975fe8	-0.29565358
18	0x3ea3e7a7	0.32012674
19	0xbe12a903	-0.14322285
20	0x3eacea52	0.33772522
21	0xbf11c7ad	-0.56945306
22	0xbda6a97b	-0.081377946
23	0xbec42b0b	-0.3831409
24	0xbf0cec1b	-0.5504777
25	0xbded04c3	-0.11573174
26	0xbe8aa904	-0.27082074
27	0x3ed66e54	0.4188105
28	0xbe3aa712	-0.18227795
29	0x3e930a5e	0.28718847
30	0xbe82c99e	-0.25544447
31	0x3d9a66c6	0.07539134
